06-Modular/models/TinyVGG.pth (torch, 36152 bytes, 10 tensors)

convblock1.0.weight f4 [10, 3, 3, 3]
00000000: a4c0 32bd e410 bf3d c3e0 40bd 7d17 c1bd
00000010: a755 3f3d 6c25 20be 97fe 213d 8d60 e2bc
00000020: 6835 81bc c74c 29bd 8a96 253e f033 3cbe
00000030: f9d5 cf3d b833 3bbe bc86 30bd 025d 2b3e
00000040: 42dd a23d e0dc 88bd 5de4 debd a4ad 0e3e
00000050: 5fdf b2bc 4af7 1fbc 978f c1bd 4ece aa3c
00000060: 37a3 26bd 5c83 d13d c678 40be 4085 063e
00000070: fd1e 8abc 11a3 cf3d c195 3bbe 53ec 223e
00000080: 3ff8 94bd ffbe f03c ba8a d9bd 2f47 2cbe
00000090: de20 0b3e 8b61 71bd 3e1f ef3c 41a4 3c3e
000000a0: bc57 e4bd 52dd bcbd 9f94 39bd aeee fe3d
000000b0: b9f1 bebd 5140 b13d 1c0c e0bd f561 1c3a
000000c0: 6f4c 3dbe e0c5 1d3e c2f1 353e ae46 213e
000000d0: 8e11 523c 49f3 29be d0ae fd3d 3429 27be
000000e0: 014a afbd 46a5 313e ded7 82bb 24d5 ba3d
000000f0: dad1 843d 5be9 c03d 93e0 8dbd 43bb 323e
00000100: 5432 05bc bff8 36be 473d 1d3e fe67 eebd
00000110: 67c6 1abe d62a c93d 407e 013e 1102 2bbd
00000120: 3227 bb3d 2635 08be 3df2 f1ba b757 37bc
00000130: f761 27be 4e35 463d a8c7 fc3d c0fc cb3d
00000140: dc9b 47be beda babc 5e4b 2c3e a16a d6bd
00000150: 62dd 15bd e850 023e e095 9b3d e0e8 9ebc
00000160: 2b45 a83c 0a47 053e c709 3abe a909 83bd
00000170: bb2a 0d3e 07de 4d3d 3765 f4bd bc96 c5bc
00000180: 05c9 023e b49d 123d dc4e e8bd 1ea6 393e
00000190: bb5d 8cbd 1e31 b73d dc74 e83d e6b5 273e
000001a0: 084d 0ebe fd1c 26be e74b e73d af16 423e
000001b0: e74e 61bd 0b8a 62bd 9c7f 10be de73 69bd
000001c0: 0f2a 803c 2049 003d 2e8d d0bd 7545 b03d
000001d0: 495e 1bbe 7cb6 1bbe 40db 033e 970d e73d
000001e0: 1adc 873d e8a7 453e 1a1d 2dba 67c4 fa3c
000001f0: ed8e 1fbe 2221 f03d 5ac3 d2bd 2fd4 193c
00000200: a38e 2fbe 33aa 82bb 9400 a2bd ebdb acbd
00000210: 9049 af3d 472d 143e 86f0 c8bd 2893 1a3e
00000220: 56e2 aabd c7c4 ddbc baf8 2b3e b86b aa3d
00000230: 957e 103d dc26 c53b 7e50 c63b cd0d c63d
00000240: 53dd d33d 8bdc eabd cd9d dd3d 1dd7 c63c
00000250: d94f d63d 9299 16be 9740 43be cc2f 333e
00000260: 3d97 b03c bafd b13a 038f 3d3e 656d a9bd
00000270: b91d 1c3e a0d6 4dbd bff5 10be bb3f 2a3e
00000280: 3144 cfbc e559 0fbd c0fc 1bbe 54eb 003e
00000290: 540b e5bd 14b1 ec3b f1de 15be b94c fcbd
000002a0: ed1f 78bd 91ea 143e 0368 423e 2f1c a33c
000002b0: 19a8 593d 604e 16be ec4c ce3c 9650 033e
000002c0: b70f 8f3d 1a73 04bd 54da 49bd 15a2 3cbe
000002d0: ecdc 993c ac06 673d f7ce dcbd 22d8 203d
000002e0: e748 a7bd fd73 f43d 0800 793d 5dc0 c53d
000002f0: 92d3 da3d c609 98bd 031a 463e c4cc 4a3e
00000300: 7f4d 26be aa0d 243e b0fe 453e cafa 863d
00000310: 0e1c 4c3d ddc5 623d bf68 0d3d a954 b8bd
00000320: ab0e a1bd 491e 373e c185 ac3c 88aa 393e
00000330: 8866 463e ad1a 0e3d 3b85 2c3e 02a3 8b3d
00000340: 4d7a 3cbd 52d5 143e 9767 45bd 1561 50bc
00000350: 58af 72bd 873c 73bb 5891 f3bd ba16 d6bd
00000360: e0c9 1c3e 9b8f b13d fcbf 3f3d 8cb4 1c3e
00000370: 4655 143e 8be8 b9bd d3d5 b7bd 5242 2ebd
00000380: d19e 333d 3e63 9d3b 834b 0bbe 2645 b5bd
00000390: 44dc e53d ff09 b63d db45 b8bc 4086 f7bd
000003a0: ab9c 3ebd 160e 213e 6b68 04be ea38 1b3e
000003b0: 38c2 c33c 2046 46be 2ba6 1dbe 2a5d 1abe
000003c0: 9ef7 bbbd b5bc e73d 8d01 b33d 2813 423e
000003d0: cd42 b53d 31db 20bd ce50 0fbe c7d1 06be
000003e0: 603b 593d a1ca 253c f72f fe3a 4be6 bcbc
000003f0: ae0e 0a3d 2781 893d 637d 1f3d a935 f13d
-0.043640748 0.093293935 -0.04708935 -0.09428308 0.046712544 -0.15639275 0.039549436 -0.02763393
-0.015772536 -0.041332986 0.16170707 -0.18379188 0.10148234 -0.18281448 -0.043097243 0.16734698
0.07952358 -0.066827536 -0.108834006 0.13933426 -0.021835027 -0.009763548 -0.09451216 0.020850327
-0.040682998 0.10230133 -0.18796071 0.13136768 -0.01686048 0.10138524 -0.18318845 0.15910463
-0.07273912 0.029387949 -0.10622163 -0.1682403 0.13586757 -0.058930915 0.029189702 0.18422033
-0.111495465 -0.09221901 -0.04530775 0.12447868 -0.09323449 0.086548455 -0.1093981 0.00059655245
-0.18486188 0.15407515 0.17768005 0.15749618 0.012821568 -0.16596712 0.123868585 -0.16324311
-0.08559037 0.17348203 -0.0039930185 0.091226846 0.064853385 0.09419509 -0.069276 0.17454247
-0.008129675 -0.17868327 0.15355407 -0.11640929 -0.15114747 0.098226234 0.12645817 -0.041750018
0.09138335 -0.13301525 -0.0018459033 -0.011190346 -0.16345964 0.04839068 0.12342769 0.099603176
-0.1949305 -0.022809383 0.16825625 -0.104695566 -0.03658808 0.12726176 0.07596946 -0.019398153
0.020540794 0.1301538 -0.18167792 -0.06398327 0.13785832 0.05026057 -0.11933368 -0.024119727
0.12771995 0.03579493 -0.11343166 0.18129775 -0.06853815 0.08944915 0.11350414 0.16377982
-0.13896573 -0.16221996 0.11293774 0.18953966 -0.055006888 -0.05530743 -0.14111179 -0.056995265
0.015645055 0.031319737 -0.10183178 0.08606998 -0.15172686 -0.15206331 0.12876606 0.11281889
0.06633778 0.19302332 -0.0006603763 0.03061123 -0.15581866 0.117250696 -0.102911666 0.009388967
-0.17144255 -0.0039875745 -0.079102665 -0.084403835 0.08558953 0.14470397 -0.09811501 0.15095198
-0.083439514 -0.02707137 0.167941 0.08321327 0.035276968 0.0060165953 0.006052076 0.09670601
0.103449486 -0.114678465 0.10821114 0.024272496 0.104644485 -0.1470702 -0.19067608 0.17498702
0.021556491 0.0013579645 0.18511586 -0.082728185 0.15245713 -0.05025351 -0.14156245 0.16625874
-0.02530107 -0.03499784 -0.15233135 0.1258977 -0.11183801 0.007223258 -0.14635827 -0.12319321
-0.06057732 0.14542605 0.1898499 0.0199109 0.053138826 -0.14678335 0.025183164 0.1282371
0.06985419 -0.032336332 -0.04928048 -0.18421204 0.018782102 0.056402847 -0.10781663 0.03926862
-0.08168202 0.119361855 0.060791045 0.09655831 0.10684885 -0.07423739 0.1934586 0.19804674
-0.162405 0.16020837 0.19335437 0.06590803 0.049831443 0.05536448 0.03452372 -0.09000523
-0.07864126 0.17882647 0.021059873 0.18131459 0.1937505 0.03469341 0.16847698 0.06818201
-0.046015073 0.145345 -0.048194494 -0.012718459 -0.059249252 -0.0037114935 -0.118929565 -0.104535535
0.15311384 0.08669969 0.04681395 0.15303248 0.14485654 -0.09077557 -0.089763306 -0.042543717
0.04385263 0.0048030904 -0.13603024 -0.0885108 0.11223653 0.08888625 -0.022494247 -0.12086153
-0.04653613 0.1572803 -0.12930457 0.1515843 0.023896322 -0.19362688 -0.1539542 -0.15074602
-0.091780886 0.1131529 0.0874053 0.1895262 0.08850632 -0.039271537 -0.13995668 -0.13165961
0.05303514 0.010119111 0.0019392957 -0.023059031 0.033705406 0.06714087 0.038937937 0.11777813

convblock1.0.bias f4 [10]
00000000: 7501 613e b2d1 05bd 9b39 0abd 0945 cebd
00000010: dd65 48bd 74a6 31be 0a65 e53d fba1 40be
00000020: 44c8 d93c 64b9 eebc
0.21973212 -0.032670684 -0.033746343 -0.10071761 -0.04892527 -0.17348653 0.11200912 -0.1881179
0.026584752 -0.029141136

convblock1.2.weight f4 [10, 10, 3, 3]
00000000: c383 96bd 8b8d ce3c a255 7e3c 42a9 72bd
00000010: 719a aabd b2c2 1f3d a3d0 81bc abb8 c2bd
00000020: 5c2b dfbd e1c1 773d 8d97 9ebd 8b1b 75bd
00000030: f2c1 ac3d b664 1e3d e43f ddbd aa35 9abd
00000040: 91ad 663d e51f b3bd 755b 17bd f6d5 b2bd
00000050: 095f bd3d 7453 3b3d 0a0a a23d d42a 323d
00000060: 07e8 95bd ca9c 923d a14c 65bd 7d1a 923d
00000070: 4922 ba3d 4a6b 9f3c ed8b d33d 97f5 253d
00000080: a095 2fbd f69d 93bd a25b ccbd 5cc5 56bb
00000090: 847b f63d 92b3 cdbd fb27 10bd f05a afbb
000000a0: 31f2 30bd 528c debd 4e1f 073d f275 aabc
000000b0: de30 253d cff2 a4bd 0a61 b93d 2d0c 17bd
000000c0: 2b81 8e3d a707 d4bc 6dc9 9cbd 6a30 633d
000000d0: c9f6 b4bd 2418 08bb 3178 3e3c 5654 753d
000000e0: 0fd3 b33d 4dc3 2d3c da1e 11bd 0369 20bc
000000f0: f963 7d3d 1114 aa3d d808 9dbd ac16 8b3d
00000100: 532d 7b3d 35e6 15bc 1920 a1bd 8f6f e03d
00000110: e434 67bc da23 11bc 9971 a0bd 9d0a 97bd
00000120: 6ecf 463c 2c04 3cbd 9a22 46bd f08e 6dbc
00000130: 6f87 a63d b01f e03d 2c6a e23d 670b 30bd
00000140: 4bb7 67bd 2883 113c 5c29 93bd 22f2 bd3d
00000150: 2128 9cbd 8b94 993d 58b5 973d 87c1 aabd
00000160: 3b52 42bd 1bb0 35bc 87ef f8bd 3a47 7ebd
00000170: 7a8a a3bd 2d22 a1bd d428 013d 164f 653d
00000180: 23ef bebd f3ba 92bd ebfc c2bd dfac 65bc
00000190: 7863 0a3d 517c b53d dae4 193d 6675 3b3d
000001a0: 7c08 183b 6b8d 983d e2bf 89bd 314a bbbd
000001b0: f858 e9bc e881 ad3d 95c5 793d 3057 8f3d
000001c0: 12af 0dbb 520e 633d b3ff a53d cb28 e53d
000001d0: 5909 2d3d a616 47bd c11d 97bc 1e18 c13d
000001e0: c2e7 cc3d f593 bdbd da9e 3c3c 5c2d 313d
000001f0: d61a dd3d 6171 b4bd 8cce d3bd f9ed babd
00000200: d671 95bd ef99 a33c c475 a2bc 096a 713d
00000210: 26e2 e53c c660 37bc 871c c1bd 29bb 8dbd
00000220: 65d4 2c3c 7fbb 0cbd 2aa6 73bd 96ae c8bc
00000230: 7c82 6e3d ba8e a73c 7b4b 0f3b 938f bf3c
00000240: a6c2 9e3d 3126 bcbc 6f8f 50bd 8334 903b
00000250: e350 b5ba ed88 863d 3210 a23c 44de b1bc
00000260: 89aa b8bb 77f6 91bd 1504 243d d8e0 8ebd
00000270: e15b 343d 7eb4 9fbd 76f7 f03d b08b 483d
00000280: 094f 183d 7dd2 ed3d 398e 563d c722 6bbd
00000290: 03dc 553d d6ae a13d 52c5 ba3d d529 a8bd
000002a0: a096 ad3d 7ad7 05bc 78fc 32bd c107 64bd
000002b0: e577 bcbc 65a5 16bd dd22 243c e766 5f3d
000002c0: be3b 8e3c 11e8 f1bc 681d b6bd c896 7a3d
000002d0: f674 613d 569d d0bc 24ea 03be 1834 05be
000002e0: fae4 e8bb 5b2e 52bd 0c39 76bc 3866 c4bd
000002f0: f4ff 63bd 2c20 6bbc 9671 813c e86b e03d
00000300: ebdf 243d c0fb b9bd a120 90bd 380a 2d3d
00000310: 6235 973d 6755 423c 8970 d1bd 18eb c13d
00000320: b48a 4e3d bad1 a63d 84ae 873c 0d45 08bc
00000330: 066b b9bd 5250 8ebd fff6 b3bd 6836 e23d
00000340: b241 ae3d 20e7 8f3d b803 b23d 7669 833d
00000350: e206 86bd 46bc b23c 7d9c 68bd 24c0 86bb
00000360: fc5d 3d3d 0208 5e3b c693 65bd 0dc1 4ebd
00000370: 0c29 a1bd e88f 503d f825 693d a2e9 9a3c
00000380: c71d 703d a60c 0cbd c131 ec3c 41fb c73d
00000390: 9801 27bd 1bb0 49bd c0ea 973d d950 273d
000003a0: c148 9a3c af12 d4bd e025 25bd da8e 10bd
000003b0: bfe8 073d 234a 92bd 727e 21bd cc22 afbd
000003c0: 5ab7 623d df4e 42bd bb74 8f3d 98b9 84bc
000003d0: eec1 a63d ab2f 55bd 0409 1e3c 1728 393d
000003e0: edd0 e0bd 4be0 923c 70cb d6bc 6bdf b93d
000003f0: 97c2 4bbd d20b 4cbd 2a2a 95bd ba1a 96bd
-0.0734935 0.025213977 0.015523346 -0.059243448 -0.083302386 0.039004035 -0.015846556 -0.09507879
-0.10896942 0.06048763 -0.0774375 -0.05984072 0.0843543 0.038670264 -0.10803202 -0.07529767
0.05631787 -0.08746318 -0.036952455 -0.08732216 0.09246642 0.045733884 0.07912071 0.043497875
-0.07319646 0.071588114 -0.055981282 0.071339585 0.090885706 0.01946034 0.10329423 0.040517416
-0.042867303 -0.07207863 -0.09978415 -0.0032771444 0.120352775 -0.10044016 -0.03519438 -0.0053514168
-0.04319972 -0.10866608 0.03298884 -0.020808194 0.040329807 -0.080541246 0.09051712 -0.036876846
0.069582306 -0.025882555 -0.076556064 0.055466093 -0.08836133 -0.0020766342 0.011625336 0.059894882
0.087804906 0.010605645 -0.035429813 -0.009790662 0.06186292 0.083046086 -0.076677024 0.06791434
0.06132252 -0.009149124 -0.0786745 0.10958778 -0.014111731 -0.008858645 -0.07834167 -0.07375071
0.012134416 -0.045902416 -0.048372842 -0.014499411 0.08131301 0.10943544 0.11055407 -0.042979624
-0.056571286 0.008881368 -0.07185623 0.09274699 -0.076248415 0.074990354 0.074076355 -0.08337694
-0.047441702 -0.01108935 -0.12155061 -0.062079646 -0.07985397 -0.07867847 0.031533077 0.055983625
-0.093229555 -0.07164564 -0.095208965 -0.014018266 0.033786267 0.08861602 0.037571765 0.045766257
0.0023198416 0.07448848 -0.06726052 -0.0914501 -0.028484806 0.08472043 0.060979445 0.069990516
-0.0021619243 0.05543358 0.081054114 0.11189421 0.042245243 -0.048605584 -0.018446805 0.09428428
0.10005142 -0.09256736 0.011512483 0.04325615 0.10796134 -0.08810688 -0.1034213 -0.09127421
-0.07297103 0.019970862 -0.019831546 0.058939014 0.028061938 -0.011192506 -0.09429269 -0.069204636
0.010548686 -0.034358498 -0.05948464 -0.024497312 0.05822991 0.0204538 0.0021865058 0.023383891
0.0775197 -0.02296743 -0.05091804 0.004400791 -0.001383331 0.06569085 0.019783113 -0.02171243
-0.0056355637 -0.071270876 0.040042955 -0.06976479 0.044032935 -0.07798098 0.117659494 0.04896134
0.03718475 0.11612413 0.052381728 -0.057406213 0.052211773 0.078946754 0.09119667 -0.08211104
0.08475995 -0.008169049 -0.043697804 -0.055671457 -0.023006389 -0.036778826 0.010018078 0.054541495
0.017362472 -0.029529603 -0.088923275 0.061178952 0.055043183 -0.025465649 -0.12882286 -0.13008153
-0.0071073743 -0.05131374 -0.0150282495 -0.09589809 -0.055664018 -0.014350932 0.015801232 0.109580815
0.040252607 -0.090812206 -0.070374735 0.042246073 0.07383229 0.011861182 -0.102265425 0.09468669
0.050425246 0.08145471 0.016562708 -0.008317244 -0.09053616 -0.06948914 -0.08787345 0.110455334
0.08508624 0.070265055 0.086921155 0.064165995 -0.065442815 0.021818291 -0.056789864 -0.0041122604
0.04623221 0.0033879285 -0.05604913 -0.050477076 -0.07869157 0.05091849 0.056920975 0.018910233
0.058622148 -0.03419175 0.028832318 0.0976472 -0.040773004 -0.049240213 0.07417822 0.040848587
0.01883352 -0.10355126 -0.040319324 -0.035292484 0.03318095 -0.07143047 -0.03942723 -0.08551559
0.05535064 -0.0474385 0.070046864 -0.01620178 0.08142458 -0.052047413 0.009645704 0.04520425
-0.109773494 0.017929217 -0.026220053 0.09075817 -0.049746122 -0.04981596 -0.07283433 -0.073293164

convblock1.2.bias f4 [10]
00000000: 8c67 9eb9 4af2 8a3b 9353 7e3d 803a 58bd
00000010: 49ec be3d bea4 ecba 1358 303d 3f96 e53a
00000020: 455d febc 0a8a bc3b
-0.00030213257 0.004240309 0.06209142 -0.052790165 0.093224116 -0.0018054468 0.043052744 0.001751609
-0.031050334 0.00575376

convblock2.0.weight f4 [10, 10, 3, 3]
00000000: 82d7 503d 8ba4 d5bc 8d83 cfb9 4326 63bc
00000010: 7a0e aebd 95e8 5fbd 298a 903d 3582 ed3b
00000020: 6a73 66bd 688f 5dbc d94c 843d d0a8 86bd
00000030: b06f 50bd 3e73 873d 67c0 333d a251 933d
00000040: a480 b53c bc8d 383d f93a d23c b531 56bd
00000050: fa58 42bd 4458 7fbd c94f 073d 8351 813d
00000060: 29ea a6bd 4edc 3d3d 2f9f 69bd b0e9 eb3c
00000070: 7382 5c3d 71ca 113d e147 913d fc7b 0abd
00000080: f288 de3d 22f7 41bc 5e56 0e3d 7059 30bd
00000090: 2de9 3ebd c3a5 ac3d 72a9 82bd 540f 0fbd
000000a0: 0cec 8fbd 0078 7ebd 7092 373d 2e7b 0d3d
000000b0: 7c34 693d fcd2 c13d dd68 9abd a128 853d
000000c0: 9059 e0ba 3a93 52bd 3946 713d 854c a3bd
000000d0: 9f7e 8ebd e4a5 40bd d92b 59bd c22a c6bd
000000e0: 8a81 693d 74fc 493c 75e4 c33c d620 1cbd
000000f0: 9392 02bc 1c20 983d 7ee0 95bd 8f34 36bc
00000100: c8e6 3f3d a7bf bbbd 4f90 393d 51da 973d
00000110: 73d1 0cbc 2b34 2bbd 3383 60bd 0460 05bd
00000120: 2d34 653d 3343 b73c 7efc cdbc e4ec af3d
00000130: 814f db3d e9a2 f23d 128a a73d af3a ee3d
00000140: 7466 cf3d 889d b03d 7a68 85bb b9cc 6e3d
00000150: 59a9 0f3d bfa6 bcbd c2ab f03b 116d 4bbd
00000160: 98f7 373c c3b8 9cbd 1019 18bd 2b35 ddbd
00000170: 5563 01bd f211 b83d 8790 693c d7bd 503a
00000180: a388 273d 0f04 103d 58ba d33c 29e3 ecbc
00000190: 04d1 f5bb df15 4dbd 5309 69bd ae80 3bbd
000001a0: 9a90 613d 0822 dc3d 35ec 5bbd d618 a9bd
000001b0: bf1b 543d e8a8 c03d b83b 823d ed9c fe3d
000001c0: 555c 9dbd bd28 d7bd bc94 f43d a884 76bd
000001d0: de2e cf3c 5cd9 8b3c 66ff 06bc f1b3 483d
000001e0: 49b2 6c3d 59f1 c83c 139c 673d 3875 e23d
000001f0: 1301 c53d e285 d53c 5766 ad3d 6c7a cb3d
00000200: d663 de3d b3fb adbd d92b 3e3d 5604 9f3c
00000210: f42e cdbd 1bb6 0ebd 25c1 50bd 3f19 2f3d
00000220: 0e02 4f3d 55cb b2bd 219d acbd d9f8 8a3d
00000230: 27d7 a53d ee93 813d f820 b3bd 9e0a 7dbd
00000240: a7ef 513d 22a9 be3d 080c e0bd 4532 afbd
00000250: 64b9 923d 041b 943c 4114 d53d 8630 e83d
00000260: be07 1c3c a68f c7bd bc1a 11bd ddac bebd
00000270: 18d4 9abd 88c8 7a3d 69b3 3e3d 1f97 a83d
00000280: 41e0 96bd 4664 953d f8c9 a83d db14 5a3d
00000290: 14b1 a1bd 977f 2b3c 7359 353a 3c66 013d
000002a0: 4c04 4ebc 91f3 cbbc fc91 5fbd f5f3 8ebd
000002b0: 0406 5cbd bd1f 893d 73a5 46bb cc81 183c
000002c0: 5f8b 26bd 1134 91bb 13d2 263d dce6 833d
000002d0: c298 fe3a bc42 aebd 32f6 3e3d 761d fbbc
000002e0: 7250 e5bc 8e12 4dba 3faf a93d d468 46bc
000002f0: 668f e73c b622 d13c be0f 9f3d c134 b13d
00000300: 46a2 e6bc 66ef fe3c a2c1 0dbd 1d07 c03d
00000310: e262 02bd 944a babd e0be 993d 4f72 733d
00000320: 58c5 ef3c a67c 8dbd 3ad7 533d c890 da3c
00000330: 2e6c 6d3d ee84 adbc ea86 58bd 121e aa3d
00000340: 9f05 283c 588b 97bb 8910 22bd 044b 86bd
00000350: 7574 f0bc 10de 21bd 14c8 0e3b bfb2 923d
00000360: 3f08 1fbd fa0b b1bd 1c49 a03d 3be3 ee3c
00000370: 4ff8 083d 51e8 133d 1f4d 893c b2fd ab3d
00000380: 290f 49bd 6241 88bd 121f 893c 99cf adbd
00000390: 5745 48bd 0f7e 98bd 9e46 3ebd e8f3 abb9
000003a0: b8cc 1e3d 23d1 b2bc 6f06 433c 52d4 79bd
000003b0: 06d0 573d 44a3 aabd df21 9abd 7abc aabc
000003c0: d447 84bd 1d5c b7bd 1063 d73c 626a bc3d
000003d0: aa47 063d 77b7 b4bd cc2f 0fbc 4cbc 883d
000003e0: 6b0d b93d 4980 bc3c 831f 933d ad43 abbd
000003f0: a9e7 50bd fd90 1fbd 3c33 96ba 5daa b53d
0.050986774 -0.026079437 -0.0003958013 -0.013864103 -0.08498855 -0.054665167 0.07057602 0.007248188
-0.05626241 -0.01352296 0.0645997 -0.06575167 -0.050887764 0.066137776 0.04388466 0.071933046
0.022156067 0.045057043 0.025662886 -0.052293498 -0.047448136 -0.062340036 0.033035073 0.06314375
-0.08150131 0.046352677 -0.057036575 0.028797954 0.053835344 0.035593454 0.07093788 -0.033809647
0.10865964 -0.011838706 0.034750335 -0.043054044 -0.046609093 0.08430054 -0.063799754 -0.034926727
-0.07027444 -0.06212616 0.044817388 0.0345413 0.05693482 0.0946407 -0.07539532 0.0650189
-0.0017116535 -0.051409937 0.05890486 -0.07973579 -0.06957745 -0.047033206 -0.053020332 -0.09676124
0.057008304 0.012328256 0.023912648 -0.038117252 -0.007969516 0.074279994 -0.07318209 -0.011120929
0.04685095 -0.09167414 0.04530364 0.074146874 -0.008594858 -0.041797798 -0.05481262 -0.03256227
0.05595796 0.02237091 -0.025144812 0.08590105 0.107085235 0.11847479 0.08180632 0.11632287
0.10126963 0.08623797 -0.0040712925 0.058300707 0.035073612 -0.09211492 0.007344694 -0.04966456
0.011228465 -0.07652428 -0.037133276 -0.108011566 -0.03158887 0.08987798 0.014255649 0.00079628587
0.04090179 0.03516012 0.025845692 -0.028916912 -0.0075017232 -0.050069686 -0.056893658 -0.045777015
0.055069543 0.107486784 -0.05369206 -0.0825669 0.051784273 0.09407216 0.06359047 0.12432275
-0.076836266 -0.10505817 0.11942431 -0.060185105 0.025290903 0.017071418 -0.008239603 0.04899973
0.057787213 0.024529146 0.05654533 0.11057514 0.096193455 0.026064817 0.084667854 0.099354595
0.10858886 -0.084952734 0.046428535 0.019411247 -0.10018721 -0.034841638 -0.050965447 0.042748686
0.05053907 -0.08730189 -0.084284075 0.06785745 0.08097678 0.063270435 -0.08746523 -0.061777703
0.05125394 0.09309603 -0.10939795 -0.0855451 0.07164267 0.018079288 0.10404254 0.1133738
0.00952333 -0.09744196 -0.035425887 -0.09310315 -0.07559985 0.061226398 0.046557818 0.08231949
-0.07366992 0.07294516 0.082416475 0.053242546 -0.07895103 0.0104674315 0.0006917931 0.03159164
-0.012574267 -0.024896415 -0.05458258 -0.06980125 -0.053716674 0.06695507 -0.0030311018 0.00930829
-0.04066026 -0.0044312556 0.040727686 0.06440517 0.0019424187 -0.08508822 0.04662151 -0.030653697
-0.02799246 -0.0007822894 0.08285379 -0.012109954 0.02826662 0.025529247 0.077666745 0.0865264
-0.02815355 0.031120013 -0.03460849 0.09376357 -0.031832583 -0.09096256 0.0750711 0.059435185
0.029268906 -0.069085404 0.051718928 0.026680365 0.057964496 -0.02118155 -0.05286304 0.08306517
0.010255246 -0.0046247654 -0.03956655 -0.06557277 -0.029352406 -0.039518416 0.0021786736 0.07162999
-0.038826223 -0.086448625 0.078264445 0.029161086 0.03343993 0.036110226 0.016760407 0.08397998
-0.049086723 -0.06653096 0.016738448 -0.08486862 -0.048894253 -0.07445919 -0.046454065 -0.00032797386
0.038769454 -0.02182824 0.011903389 -0.0609935 0.05268862 -0.08331922 -0.07525992 -0.020841826
-0.06459013 -0.08953116 0.026292354 0.091999784 0.032783188 -0.08824056 -0.008739423 0.0667654
0.090357624 0.02301039 0.07183745 -0.083625175 -0.05100218 -0.03895663 -0.0011459361 0.08870385

convblock2.0.bias f4 [10]
00000000: 526a 2d3d c467 a2bc 56c1 993d 349d 99bc
00000010: 082a 4abd 6811 1fbb 3844 cbbd fd36 73bd
00000020: 0ecd a7bd 7e35 153e
0.042337723 -0.01982487 0.07507579 -0.018751718 -0.04935649 -0.002427185 -0.09925121 -0.059378613
-0.08193408 0.14571187

convblock2.2.weight f4 [10, 10, 3, 3]
00000000: dd6c 963d a267 593c e3a5 8dbc ffd6 e6bc
00000010: 43ab 71ba ce6d e63a 2405 413d f45a dcbd
00000020: 1577 923d 6a1c 7c3d 1d34 993d c06c e23d
00000030: 2b8a 0b3d 4b1f ce3b 9e46 02bd a0a2 febc
00000040: 9c9b 0a3d b848 3f3b 922b 893d f91d 2abd
00000050: f161 9f3d 662a 46bb 4da0 b2bc e4cc 163d
00000060: 1f7a 74bd a20b 94ba a2f3 d2bc c2af b13d
00000070: eb1f 8e3d 66e4 c63d 2990 753c 2ace 2a3d
00000080: 7e62 d63d f3b8 903d 6cbe 46bd ec07 13bd
00000090: 1982 05bd 2dce 233d aaea 96bd ca40 0a3d
000000a0: b299 7bbd 0eca acbd b77e 2fbd 6c31 a5bc
000000b0: 3b9a 233d ef62 acbd 53da 0b3d 33ce 1bbd
000000c0: 3551 5fba b335 9bbc ec47 e63d 476d 9e3d
000000d0: f8ae 10bd 3ff4 0ebd c7cb 2bbb c028 a23d
000000e0: 0a1d 3dbd c213 9abb 01a1 4e3d 3666 763d
000000f0: c8b7 963d 36cb 93bc 62b1 8cbd 7789 b3bd
00000100: 4a64 8d3d 8db9 073c e794 72bd 8d94 9c3d
00000110: efed 9fbd efac 233c 461f d1bc 3d4c 3abd
00000120: a68f 893d 52d1 7a3d 452b 31bd f326 c73d
00000130: 1c93 13bd 4a9b a83d 8cd9 b73d c178 843d
00000140: 0725 0a3d 8f4f 0f3c 088e 673d f935 0d3d
00000150: f7c3 06be 77a0 763d 28e4 83bd fbb7 a7bd
00000160: d2a6 25bd eaa5 0ebe 7942 8abd 0f4d 01bb
00000170: 4341 aabd 4864 183b caaf abbc 3d17 453d
00000180: f6f8 c43d 9ede 803d 3326 87bc 3e5a 85bc
00000190: 0fbb f1bb 689f 8d3d f3e8 3439 9e3b 4bbd
000001a0: 124e c03d fd8d c23d c3ae c03d 4737 383c
000001b0: c25a 8f3c 3e64 23bd d307 c23d f593 afbc
000001c0: 067a 09bb 7f87 45bd 5ea7 96bd 88c2 243d
000001d0: 6a04 983c e785 583c 827e 5bbc 37f3 113d
000001e0: 6f8c 1d3d e58b 113c 3fec 3fbd fe71 1dbd
000001f0: ee11 23bd 6578 d43d 7d62 a23d 0ff7 493d
00000200: 849d 8eb8 f267 c4bb 7384 8b3d c70a 183d
00000210: cca2 3c3d 9ead a33d 1ea8 73bd 06e1 8a3d
00000220: 81dd 91bc a165 df3d 4dbf d93d c49c 973d
00000230: 55b1 acbd d012 e9bc d53f aabd d165 ac3c
00000240: 40fc a9bd 28fa 57bd a416 88bd 600a bd3d
00000250: cf39 14bb 80c0 b4bd f768 58bd dc3a 473d
00000260: 81f9 60bd 5288 c8bd d63a 9ebd d079 48bd
00000270: 30b0 f1bd d1d4 d4bd 8d60 c0bd e297 00be
00000280: 0e2a 843d f091 95bc aa07 e13c 7b39 ea3c
00000290: 1f1d 4dbd d36c 9bbd c246 ee3c 49c1 773d
000002a0: e91b 3fbc ff84 b7bc 56cb b23d fe5a 03be
000002b0: fe94 09be ced9 4d3d 58cb 453d 8605 e23c
000002c0: 4c08 a6bd 223f 063d 5d74 2c3d 3fb3 3c3d
000002d0: 60cf 18bd bc5f 6cbd d483 a43c 39e8 3fbc
000002e0: 9bc1 b83d 0dc7 2d3c 7986 8d3d 1a6f 083c
000002f0: 339b 2f3d 50e6 6bbd 3f6d b3bb 14cf a8bc
00000300: 7d8d ba3d 5826 373d ab43 1abd e223 263c
00000310: 1de6 b93d 30ce 5cbd d850 4bbc 5322 60bc
00000320: b526 adbd ac7c 303d 95fe fabb 727f 28bd
00000330: 7ad9 e03c 4aa8 febb 7489 883b 13f7 033c
00000340: 4633 8dbd 12a7 97bd 1440 993c e9e7 373c
00000350: 00e1 873d 9105 9b3d d849 8bbd 3408 d63d
00000360: 450b 063d 8bcf 723c 9f29 e13d 717a 96bd
00000370: aa5e cb3d 8bd7 86bc 3773 a7bd 42ff 2d3c
00000380: 6a86 75bd b304 163d 4413 afbd 7485 ad3d
00000390: 47af 54bd 9e5e cebd b2b2 c73d 2ea1 ad3d
000003a0: 7b93 b6bd bda4 b63c e4a3 f03d e14a 1b3d
000003b0: 4c3b 45bd b0d3 bf3d 0002 e63d 21d2 213d
000003c0: 1eb5 353d 9828 483d e00b bb3d 2c8d 33bd
000003d0: 8e86 22bc bf66 093e a009 e03d 9029 7b3d
000003e0: 6161 573d 8bb2 d33d c47f 173e 0322 fd3c
000003f0: 9c17 5abd eb09 05bd 359a fc3d 25d3 1d3d
0.07344983 0.013269337 -0.017291015 -0.02817869 -0.00092189404 0.0017580332 0.047124043 -0.107595354
0.07151619 0.061550535 0.07480643 0.11055899 0.034067314 0.0062903515 -0.031805627 -0.031083405
0.033839807 0.002918763 0.066977635 -0.04153249 0.07782353 -0.0030237674 -0.021804953 0.036816493
-0.059686776 -0.0011294971 -0.025750939 0.08676101 0.069396816 0.09711532 0.014987984 0.04170052
0.10468005 0.07066526 -0.048521444 -0.035896227 -0.032594774 0.039991546 -0.07368977 0.033753194
-0.061425872 -0.084369764 -0.042845454 -0.020165168 0.039942008 -0.084173076 0.034143757 -0.038038444
-0.00085188757 -0.018946504 0.11244187 0.07735687 -0.035323113 -0.0349009 -0.002621399 0.07917929
-0.046170272 -0.0047020623 0.050446514 0.06015607 0.07359272 -0.018041234 -0.068697706 -0.08766454
0.06903894 0.008283985 -0.059224036 0.07645521 -0.07809054 0.009989961 -0.025527608 -0.045482863
0.06716852 0.06123478 -0.043254156 0.09724226 -0.036028966 0.08232744 0.08977041 0.064683445
0.03372672 0.008746996 0.056531936 0.0344753 -0.13160692 0.060211625 -0.06440002 -0.08189388
-0.040442295 -0.13930479 -0.0675096 -0.0019729768 -0.08313229 0.0023253132 -0.020957846 0.048117865
0.09617798 0.06292461 -0.016497707 -0.016278382 -0.0073770355 0.0691517 0.00017252918 -0.049617402
0.09389891 0.09499738 0.09408333 0.011243648 0.017499331 -0.03989052 0.094741486 -0.021432856
-0.0020977273 -0.048224922 -0.073561415 0.040224582 0.018556792 0.013215519 -0.013396861 0.03563234
0.038464006 0.008883451 -0.04685616 -0.03843879 -0.03981202 0.10374526 0.079289414 0.04930788
-6.800427e-05 -0.0059938366 0.06812372 0.037119653 0.046053693 0.07992099 -0.0594865 0.06781201
-0.017805817 0.10908056 0.10632191 0.074029475 -0.08432261 -0.028451353 -0.08312956 0.021044644
-0.08300066 -0.052728802 -0.06644943 0.092304945 -0.0022617464 -0.08825779 -0.052834477 0.048640117
-0.054925445 -0.09791626 -0.07726066 -0.048944294 -0.11801183 -0.10392154 -0.093934156 -0.12557939
0.06453334 -0.018258065 0.027469475 0.028591862 -0.0500766 -0.07589116 0.029086474 0.060487065
-0.011664369 -0.022402285 0.087301895 -0.1282768 -0.13435742 0.050256543 0.048289627 0.027590524
-0.08107051 0.032775052 0.04210316 0.04606938 -0.037307143 -0.057708487 0.020082392 -0.011713081
0.09021302 0.010606539 0.06910414 0.00832727 0.04287262 -0.05759269 -0.0054756696 -0.020606555
0.09109018 0.0447143 -0.03766219 0.010140391 0.09077094 -0.053907573 -0.012409411 -0.0136800585
-0.084546484 0.043087646 -0.007659743 -0.041137166 0.02744745 -0.0077715265 0.0041667763 0.008054513
-0.06894545 -0.07404913 0.018707313 0.011224725 0.06634712 0.07569421 -0.06801194 0.10450783
0.03272559 0.01481999 0.10994267 -0.073475726 0.09930165 -0.0164602 -0.08176272 0.01061994
-0.05994264 0.036625575 -0.085485965 0.0847272 -0.05192497 -0.100766405 0.0975088 0.08478008
-0.089148484 0.02229535 0.1175001 0.037913207 -0.048152253 0.09366548 0.1123085 0.039507035
0.04436218 0.04886684 0.09133124 -0.043835804 -0.009919776 0.13418101 0.10939336 0.061318934
0.052583102 0.10336789 0.14794832 0.030900007 -0.053245172 -0.03248016 0.123341 0.03853144

convblock2.2.bias f4 [10]
00000000: fa01 a8bd bcb6 c3bd ffad 023d 48db abbc
00000010: efa6 30bd 9acf acbd 457d dabd 3227 1a3d
00000020: 4d18 3cbd e626 e8bb
-0.08203502 -0.09556338 0.031904217 -0.020978585 -0.04312795 -0.08438034 -0.106684245 0.037635036
-0.045921613 -0.007084715

classifier.1.weight f4 [3, 1690]
00000000: dd55 1ebc 06bf 36bc 82dd 1fbc 1541 ed3c
00000010: e531 3f3c 476e b53c 612f 6fbc fe03 a9bc
00000020: 84e2 9ebb 7ac7 4a3c 1092 23bb 75b3 f9ba
00000030: 88e9 953c af92 b63b 656c bcbc 9724 d73c
00000040: 7e9d c53c 82d6 7b3c 2189 82bc e108 f33b
00000050: 94c2 b1bc 727a d63b 3b54 a2bc adf2 51bc
00000060: 2b29 ffbb ad83 abbb 1a2d a3bc e4a1 bebb
00000070: 7267 f63b 6970 94bc f859 cebb 9941 aabc
00000080: 121c 95bb d395 d3bc de71 fdbb b56a 54bc
00000090: 3f8d 04bb 12ac 6fbc 0c47 dbbb 7ab7 fabc
000000a0: b2ee 3d3c a8e2 233a 910f 82ba 497d cbbc
000000b0: 464a 1fbc 1f8e 543b bc02 9c3c 4dbc 7a3b
000000c0: b10d 5bbc 7148 b0bb ba93 19bc 8a99 0abd
000000d0: ea2c 5c3c 25b8 b93c 73bf babb b8aa 85bc
000000e0: 03ed 55bc b185 e43b 0bee be3c 8cae cc3c
000000f0: 7cf4 553c 051f 923c a218 54bb 9d47 7c3c
00000100: 6e1e 04bd 4795 93bc 9a9b 57bb 2d03 e33b
00000110: b941 eebb ce65 8fbc 06bf 3f3c 6cad b9bb
00000120: 1bed d7bb b9c3 9abb 6942 993c 1b35 80bb
00000130: caf4 613c 18b4 3cbb 7aa8 633a 47ae 15bb
00000140: 7e58 7e3c e0f3 a33c e863 9aba a55b 923c
00000150: 8530 033c 19de de3b bd6c 9a3c 126d 1b3d
00000160: 6226 103d 0750 723c 3e6e e03c a6d2 bfbb
00000170: 6674 a83c 7fe2 b639 bb79 b33c b313 2f3c
00000180: 1177 0f3b b809 2a3d e2c9 083a c341 973c
00000190: 915d 0e3d abab e93c e927 c73c 19b5 743b
000001a0: 1ee8 c43c ba1b 013d d2c8 8dbb 8f36 ef3a
000001b0: 657e 4ebb 74a0 843c ac87 95bb 3b23 e63c
000001c0: 0c5d 6c3c ecca 16bc a076 f43c 7fb0 313b
000001d0: 2ff7 ae3c e5f3 b6bc bb08 f03b 2f60 b33c
000001e0: 6972 053d 286d cbbb f168 203b 58f3 e43b
000001f0: b23d e1ba 2cca e1b9 f32f a43b 4cfc 0a3c
00000200: 9b9f a4bb b155 c2bc dbb1 c4ba ff2f f0ba
00000210: 0f5a 823c 53df acb8 160a 13bc 1775 763b
00000220: 3d59 d13c 725a e6b8 0a2f 8a3c a8c4 423b
00000230: 675e 1a3c 34b8 423c 21ad 923c ee47 5cbb
00000240: 452a 69bc 3fdb 443c 4146 16bc 677c 15bb
00000250: d3a3 c9bb 5c67 823c ec7e 75bc 0f99 53bc
00000260: cf31 babc 3ca3 d33b cab3 a3ba b593 b23b
00000270: 4376 b6bc 8e26 ca3b 2805 2cbd 9e2d 12bd
00000280: dde9 0b3c 1196 73bc 72a6 b5bc 804f e8bb
00000290: 6e5c e9ba 1d02 d6ba fecd ae3b 95d7 a6bc
000002a0: bb9b 0bbc 3403 0e3d 0439 bf3c 86c2 bb3c
000002b0: c635 4d3c a8e1 253d 757a 083d 27b5 e03c
000002c0: d8fb ba3b 1edd 89bc 7865 8c3c a302 4ebc
000002d0: c716 143d fb9c 75bc cf22 093d 1449 ceba
000002e0: 9b89 c6ba a01d e13c 2c78 13bc ac24 4f3a
000002f0: dea0 473c e4c1 683c a204 983c 977d 973c
00000300: 977a f43b cd8c ab3b d679 573c 6b81 0abc
00000310: 17e3 bd3c cf4c 5d3c 5061 c33c e16a 4f3c
00000320: 2eb7 c439 ced0 65bb 5eba 203c 96a4 98ba
00000330: 31f4 05bc 902d 3bbc d8c8 ca3b 586e 2f3b
00000340: 3cb4 c13c 80f2 fa3b b6e7 c43c 3b9f 73bb
00000350: e8d3 78bc 7d1f 823c b9ec 853c ae57 e7bb
00000360: 1deb 19bc 4c8c 8f38 d877 ef3c f6e6 d13c
00000370: 5b4e 9a3b afd3 053c 578d f63c faab a83c
00000380: da33 b43c 136c 293c 4794 b13c 11bb efba
00000390: 1116 ee3c 7515 12bc 467f 853c 36a2 dd3c
000003a0: e23e 21bc 241c aebc 5977 083b 37e6 98bc
000003b0: 4eca 663c 4a8c 2ebc 065a 3dbc a564 2b3c
000003c0: 8e2f 11bc 97a4 b6bb 4526 6c3c c11e 123c
000003d0: 6d15 2d3d 5e60 c73c 6b4c 65bc 23b3 543b
000003e0: 887c 0bbc be07 0a3b ed3d 823c 3acc a93c
000003f0: c61f b13b 6037 603c 0da6 b63c 1899 eb3b
-0.009664026 -0.011153942 -0.009757401 0.028961698 0.011669611 0.02214731 -0.014598698 -0.020631786
-0.00484878 0.0123766605 -0.0024958886 -0.0019050675 0.018299833 0.0055716853 -0.023000905 0.026262565
0.02412295 0.015370967 -0.015934529 0.00741683 -0.021699227 0.0065453583 -0.019815555 -0.012814206
-0.00778689 -0.005234203 -0.019918967 -0.0058176387 0.007519656 -0.018120008 -0.006297346 -0.020783233
-0.0045504654 -0.025828278 -0.0077345213 -0.012964894 -0.002022579 -0.014628427 -0.006691819 -0.030605067
0.011592554 0.0006251731 -0.0009922852 -0.024840014 -0.009722298 0.0032433344 0.019044273 0.0038259209
-0.0133699635 -0.0053797294 -0.0093736 -0.033837833 0.013438443 0.022670815 -0.005699092 -0.016316757
-0.013056996 0.006973945 0.023306867 0.024985574 0.013058778 0.017837057 -0.0032363315 0.015397933
-0.032255583 -0.018015517 -0.0032899142 0.006927869 -0.0072710183 -0.017504599 0.011703258 -0.0056664255
-0.0065895445 -0.004723039 0.018708425 -0.0039125807 0.013791272 -0.0028793868 0.0008684468 -0.0022839473
0.015524028 0.02001375 -0.0011779042 0.017865965 0.008007173 0.0068013784 0.018850679 0.037945814
0.035192855 0.014789588 0.027396318 -0.0058539687 0.020563316 0.00034882498 0.021908632 0.010685849
0.0021891037 0.041513175 0.0005218071 0.018463975 0.0347572 0.02852424 0.024311023 0.0037339388
0.024036463 0.031520583 -0.004326918 0.0018250513 -0.0031508442 0.016189791 -0.0045632925 0.028092971
0.014426481 -0.009203654 0.029841721 0.0027113257 0.0213581 -0.022333095 0.0073252595 0.02189645
0.032579813 -0.006208081 0.0024476612 0.0069870166 -0.0017184524 -0.00043065974 0.005010599 0.008483004
-0.0050239093 -0.023722501 -0.0015006618 -0.0018324851 0.015912084 -8.2431965e-05 -0.008974573 0.0037606412
0.025555247 -0.000109841014 0.016868133 0.0029719267 0.009421921 0.011884738 0.01790482 -0.003361221
-0.014231269 0.012015163 -0.009172023 -0.0022809745 -0.0061535626 0.015918426 -0.014983874 -0.01291491
-0.022728829 0.006458668 -0.0012489494 0.005449737 -0.022273188 0.006169147 -0.041997105 -0.035688035
0.008539644 -0.014867322 -0.022174094 -0.0070895553 -0.0017804035 -0.0016327534 0.005334615 -0.02036647
-0.008521016 0.034671023 0.023342617 0.022919904 0.012525028 0.040498406 0.03331991 0.02743013
0.0057062916 -0.01682907 0.017138228 -0.012573871 0.036154535 -0.01499104 0.03348046 -0.0015738332
-0.0015147211 0.027479947 -0.009000819 0.0007901888 0.01218435 0.014206383 0.018556897 0.018492503
0.007460903 0.0052352906 0.013151607 -0.008453707 0.023179574 0.013507082 0.023850113 0.012659759
0.00037520513 -0.0035067084 0.009810058 -0.001164573 -0.008175896 -0.011424437 0.006188493 0.002676865
0.023645513 0.007658303 0.02403627 -0.0037173766 -0.015187241 0.015884155 0.01634823 -0.007060013
-0.009394434 6.844904e-05 0.02923195 0.025622826 0.0047090477 0.008168145 0.030096693 0.020589817
0.021997381 0.010340708 0.02167715 -0.0018290003 0.029063256 -0.008916249 0.01629604 0.027054887
-0.009841653 -0.021253653 0.002082309 -0.018664462 0.014086319 -0.010653565 -0.011557108 0.010461007
-0.008861436 -0.00557382 0.014413421 0.008918465 0.04225676 0.024337944 -0.01399527 0.0032455407
-0.008513577 0.0021061744 0.01589867 0.020727266 0.005405399 0.013685077 0.022295976 0.007189881

classifier.1.bias f4 [3]
00000000: 31b8 8d3c 7a40 05bc 2f71 01bd
0.017299743 -0.008133048 -0.03160208
