04-Computer-Vision/models/03_pytorch_computer_vision_model_2.pth (torch, 35634 bytes, 10 tensors)

block_1.0.weight f4 [10, 1, 3, 3]
0.26791215 0.343481 -0.46919334 0.22238366 0.27248356 0.039384887 -0.27876818 0.17235176
0.19580872 -0.5154992 0.5766517 -0.03425746 0.13152547 0.36437532 0.18477441 -0.08919949
0.36636192 0.117191024 -0.29605478 -0.05066527 -0.0154104885 -0.65503865 -0.6305511 0.1669492
-0.7851727 -0.6570013 -0.12540275 -0.73633647 -1.0270363 -0.5968112 0.30979714 -0.5905704
0.24047546 0.25498518 -0.016052421 0.46180445 -0.09619026 0.34688643 -0.06653093 -0.2968064
0.23817104 -0.16399537 -0.05425484 0.3699124 0.101486266 -0.14303528 0.1906114 0.057959773
0.17508413 -0.20233716 -0.32846028 -0.12494394 -0.2540328 0.27516985 0.13594732 0.16286092
-0.07416023 -0.021480292 0.13740975 -0.3202472 0.0042353035 -0.4533632 -0.030627625 -0.14451061
0.019555172 -0.17557889 0.26150987 -0.20162868 -0.26068056 -0.23568748 0.3927596 0.16550075
0.49579754 -0.31394666 -0.44717634 -0.24767715 -0.3164779 0.05464186 0.37985617 0.4441535
-0.17292616 -0.22691044 0.17623584 -0.13465133 0.20232779 -0.08087914 0.18941408 -0.25868422
-0.16837864 0.10106899
00000000: c82b 893e bedc af3e 1c3a f0be 8bb8 633e
00000010: f782 8b3e 0c52 213d b4ba 8ebe fb7c 303e
00000020: 1582 483e c1f7 03bf 729f 133f 8d51 0cbd
00000030: 9dae 063e 678f ba3e 8135 3d3e 39ae b6bd
00000040: ca93 bb3e d901 f03d 7e94 97be 6386 4fbd
00000050: 467c 7cbc 9db0 27bf cc6b 21bf bbf4 2a3e
00000060: 1401 49bf 3d31 28bf 9469 00be 8c80 3cbf
00000070: ed75 83bf 9ec8 18bf bb9d 9e3e 9f2f 17bf
00000080: 333f 763e 6b8d 823e 5e80 83bc a271 ec3e
00000090: 66ff c4bd 199b b13e 5e41 88bd 02f7 97be
000000a0: 1ce3 733e 67ee 27be 533a 5ebd 2865 bd3e
000000b0: 08d8 cf3d d777 12be a32f 433e 3a67 6d3d
000000c0: 4149 333e 7931 4fbe f22b a8be 9ce2 ffbd
000000d0: 9610 82be 10e3 8c3e c635 0b3e 03c5 263e
000000e0: 52e1 97bd 70f7 afbc 24b5 0c3e 71f7 a3be
000000f0: 4dc8 8a3b 391f e8be c9e6 fabc 97fa 13be
00000100: 2b32 a03c f4ca 33be 9fe4 853e c077 4ebe
00000110: ec77 85be 0f58 71be c917 c93e 0779 293e
00000120: 2dd9 fd3e 9ebd a0be 4cf4 e4be 149f 7dbe
00000130: 6409 a2be 25d0 5f3d 827c c23e 1668 e33e
00000140: 8e13 31be 365b 68be 2b77 343e 0ae2 09be
00000150: 042f 4f3e f6a3 a5bd c4f5 413e 4272 84be
00000160: 736b 2cbe 42fd ce3d

block_1.0.bias f4 [10]
0.10309402 0.04175785 0.23165023 0.21428284 -0.016084418 -0.18194409 0.11424824 -0.080153584
-0.07042382 -0.32373863
00000000: f522 d33d 480a 2b3d b835 6d3e f66c 5b3e
00000010: 78c3 83bc 8d4f 3abe fbfa e93d 9027 a4bd
00000020: 5d3a 90bd 12c1 a5be

block_1.2.weight f4 [10, 10, 3, 3]
0.09869306 0.06361915 -0.0003530905 -0.14256208 -0.22282717 -0.26596856 -0.06515201 -0.2156547
-0.19772421 -0.0839466 0.026027776 -0.09679395 -0.19787262 -0.3199745 -0.28780046 -0.122691594
-0.20197946 -0.24281211 0.014880688 0.044874586 0.10703756 0.07728562 0.25850257 0.17384134
-0.07018198 0.05227833 0.072868325 -0.19372001 -0.024235358 -0.20203373 0.058905847 0.0062948344
-0.15013842 0.1588774 0.037862245 0.055680115 -0.14354488 -0.1272644 0.0018075337 -0.048018616
0.024602864 -0.10625875 0.071469955 -0.10056447 -0.024262726 0.022349743 0.054614257 0.08463229
0.09632904 -0.08339653 0.028982522 -0.045009997 -0.012862758 -0.07776555 0.2245208 -0.009841497
-0.0018471382 0.13330022 0.051367886 -0.08541927 0.10454056 -0.011968045 -0.08190241 -0.08286843
0.048272453 -0.00733598 -0.036443964 0.09184977 0.018108878 -0.035318777 -0.06403018 -0.005603195
0.0941442 -0.006788673 -0.042693246 -0.01605118 -0.04813515 0.064407915 0.09579483 -0.093731664
-0.0092950305 0.054437883 0.019122869 -0.037531786 0.05501571 0.055393957 0.039417084 -0.018522665
-0.027910305 0.0112698395 -0.008363857 -0.023910377 0.069105126 0.087459594 -0.005082429 -0.013813061
-0.013654375 -0.008924742 0.026655672 0.020068135 -0.087760285 -0.039325386 0.083651125 0.05381354
0.00013796157 -0.083373845 -0.06643113 -0.095014066 -0.03392831 0.0337588 0.063447244 0.05014687
-0.094759166 -0.067503005 -0.019304601 0.102126695 0.012369135 -0.023550063 0.047551043 -0.037740033
-0.07132619 0.06905091 -0.051316552 -0.020852922 -0.11078098 0.06920574 0.07772965 0.04241568
-0.07123146 -0.11416683 -0.08908141 0.08016407 0.04026021 0.09237245 0.05683331 0.026700282
-0.0010221542 -0.08015314 -0.09032924 -0.09851077 0.04296901 -0.05174847 -0.021140791 -0.060562614
-0.019999463 -0.07577657 -0.06790823 0.03111637 -0.03533358 0.07025032 -0.038321227 -0.08512765
-0.024442146 -0.048935477 -0.03200752 -0.0996257 0.059142396 -0.073870614 0.05195719 0.04598362
0.07604824 -0.0788884 0.0822624 -0.04576747 0.043234732 0.095530786 -0.014471504 -0.0021998778
-0.030148588 -0.09380934 0.052756973 -0.10464197 0.06543795 0.078871444 0.09968747 -0.02485599
-0.086611375 0.023699228 0.058231205 -0.104909874 -0.024611427 -0.06410557 -0.010837765 -0.053243864
-0.044871636 -0.032948636 -0.10447226 0.0842742 0.08682778 -0.01677399 -0.012485751 -0.04425919
-0.096636616 -0.103857264 0.03846525 -0.06420797 -0.07271467 -0.009698422 -0.03796523 -0.037710264
-0.0006865489 -0.021936407 -0.036237616 -0.052184895 -0.08627509 0.08640932 -0.042167414 0.025587333
-0.03863671 0.0060291123 0.09262945 0.045283116 -0.09164058 0.03245544 0.09264148 0.02239522
0.07065508 0.10391957 -0.016146487 0.021793162 -0.0734625 -0.02140527 0.07526418 0.051848207
-0.06692004 -0.08452587 -0.07203284 -0.1040335 -0.081337884 -0.02641302 0.071386784 0.01758388
-0.0800849 -0.08456185 0.0488657 -0.081729256 -0.015561613 0.048614036 -0.050838713 -0.012959951
-0.010336613 -0.02524175 -0.05470199 -0.09395704 -0.08520831 -0.0564387 0.10114506 -0.051216945
-0.071061574 0.02299799 0.026474709 0.055630986 0.079719804 0.058685604 -0.10454449 0.00819771
00000000: 961f ca3d c24a 823d 011f b9b9 cbfb 11be
00000010: ce2c 64be 082d 88be 6b6e 85bd 96d4 5cbe
00000020: 3778 4abe 32ec abbd 3438 d53c e83b c6bd
00000030: 1f9f 4abe b3d3 a3be 955a 93be bb45 fbbd
00000040: b4d3 4ebe bda3 78be 21ce 733c 6ace 373d
00000050: 8236 db3d ec47 9e3d 735a 843e 7703 323e
00000060: 92bb 8fbd cd21 563d fd3b 953d 8a5e 46be
00000070: 3b89 c6bc eee1 4ebe 4247 713d e644 ce3b
00000080: e3bd 19be c2b0 223e 7115 1b3d d510 643d
00000090: 6efd 12be 9951 02be c4ea ec3a 2baf 44bd
000000a0: f28b c93c 309e d9bd d75e 923d bff4 cdbd
000000b0: a0c2 c6bc cf16 b73c 33b3 5f3d b253 ad3d
000000c0: 2948 c53d cdcb aabd c16c ed3c 675c 38bd
000000d0: 51be 52bc 8b43 9fbd c8e8 653e 3b3e 21bc
000000e0: ac1b f2ba da7f 083e 2267 523d 4cf0 aebd
000000f0: 5c19 d63d 9e15 44bc 73bc a7bd ecb6 a9bd
00000100: 56b9 453d a962 f0bb 4446 15bd bb1b bc3d
00000110: 1259 943c 6caa 10bd 4122 83bd 029b b7bb
00000120: adce c03d 8473 debb 1ddf 2ebd c47d 83bc
00000130: 5d29 45bd 4ce8 833d 1430 c43d 63f6 bfbd
00000140: 2f4a 18bc 42fa 5e3d 90a7 9c3c eeba 19bd
00000150: 2758 613d c6e4 623d cf73 213d d8bc 97bc
00000160: 27a4 e4bc 22a5 383c 8f08 09bc b2df c3bc
00000170: fd86 8d3d 041e b33d 818a a6bb 2d50 62bc
00000180: 9ab6 5fbc 1539 12bc ff5c da3c ee65 a43c
00000190: aabb b3bd a813 21bd 4851 ab3d 966b 5c3d
000001a0: c7a9 1039 e8bf aabd 0b0d 88bd bc96 c2bd
000001b0: 69f8 0abd ab46 0a3d a1f0 813d ce66 4d3d
000001c0: 1811 c2bd 043f 8abd af24 9ebc cd27 d13d
000001d0: eaa7 4a3c 10ec c0bc e2c4 423d 4b95 1abd
000001e0: 7713 92bd 906a 8d3d 4e31 52bd bfd3 aabc
000001f0: 23e1 e2bd bdbb 8d3d b930 9f3d 10bc 2d3d
00000200: cde1 91bd 4dd0 e9bd 5070 b6bd 0f2d a43d
00000210: e4e7 243d c42d bd3d 0bca 683d 8dba da3c
00000220: cef9 85ba 5427 a4bd 89fe b8bd 04c0 c9bd
00000230: 4600 303d 34f6 53bd 742f adbc 8110 78bd
00000240: ead5 a3bc bf30 9bbd 7813 8bbd c2e7 fe3c
00000250: f2b9 10bd 66df 8f3d b8f6 1cbd 6857 aebd
00000260: e53a c8bc 9170 48bd 511a 03bd 8f08 ccbd
00000270: 4c3f 723d 7a49 97bd 10d1 543d 5259 3c3d
00000280: 2ebf 9b3d 3e90 a1bd 3079 a83d ac76 3bbd
00000290: e716 313d a5a5 c33d e319 6dbc d32b 10bb
000002a0: 2cfa f6bc 1c1f c0bd b217 583d 874e d6bd
000002b0: 5504 863d 5a87 a13d f228 cc3d ca9e cbbc
000002c0: 4e61 b1bd e224 c23c d883 6e3d fdda d6bd
000002d0: e79d c9bc c849 83bd e290 31bc 3d16 5abd
000002e0: 52cb 37bd 26f5 06bd 8df5 d5bd f497 ac3d
000002f0: c3d2 b13d 9b69 89bc 0991 4cbc 2049 35bd
00000300: 6be9 c5bd 1eb3 d4bd bd8d 1d3d 787f 83bd
00000310: 6eeb 94bd 21e6 1ebc 6e81 1bbd 1476 1abd
00000320: 84f9 33ba fbb3 b3bc e56d 14bd d4bf 55bd
00000330: ffb0 b0bd 5ff7 b03d bdb7 2cbd 879c d13c
00000340: 8741 1ebd dc8f c53b 82b4 bd3d ca7a 393d
00000350: 0eae bbbd ffef 043d d1ba bd3d 2e76 b73c
00000360: 9cb3 903d c9d3 d43d a345 84bc 9387 b23c
00000370: 8273 96bd 1b5a afbc 1b24 9a3d c95e 543d
00000380: 600d 89bd e61b adbd f485 93bd 840f d5bd
00000390: 7a94 a6bd 1e60 d8bc 3c33 923d 120c 903c
000003a0: 8d03 a4bd c32e adbd 6627 483d ab61 a7bd
000003b0: 23f6 7ebc 831f 473d 413c 50bd f955 54bc
000003c0: e65a 29bc c9c7 cebc 320f 60bd 8c6c c0bd
000003d0: b281 aebd 442c 67bd 2425 cf3d dcc8 51bd
000003e0: bb88 91bd 4866 bc3c 7de1 d83c 51dd 633d
000003f0: 2344 a33d 5160 703d 6c1b d6bd b04f 063c

block_1.2.bias f4 [10]
0.3417539 -0.055082582 -0.06678044 0.5467941 -0.08959302 0.094438024 0.21313849 0.14871234
0.20476933 0.00240473
00000000: 5efa ae3e 469e 61bd 2fc4 88bd b3fa 0b3f
00000010: 8c7c b7bd b968 c13d fa40 5a3e 0c48 183e
00000020: 0daf 513e ad98 1d3b

block_2.0.weight f4 [10, 10, 3, 3]
-0.033120822 -0.18472248 -0.072381444 -0.072442375 -0.055511795 0.098334 -0.07970062 0.10290157
0.08459193 0.053351175 -0.10051661 -0.04290422 -0.09283568 -0.06908301 0.055297952 -0.0149400905
0.041149475 -0.06493201 0.01559075 -0.06387843 0.05256191 -0.045714825 -0.025883263 -0.09093302
0.0003930608 0.10022479 0.051041014 -0.21336801 0.14476244 -0.09754431 -0.12265072 0.163893
-0.15267853 0.0848511 -0.11834329 -0.07286348 0.016077701 0.038154908 0.02093288 -0.05462309
0.10385882 -0.016263202 -0.062056262 -0.05086539 0.10124302 -0.16489509 -0.11126073 -0.09101417
0.056516267 -0.06900177 -0.07625962 0.24675359 0.12567446 0.12472707 -0.33192074 0.13530356
-0.24263038 0.17712542 0.14935207 0.042453136 0.52837825 -0.035938587 0.032959487 -0.0175539
0.15413177 -0.0036870274 -0.029786417 0.20884347 -0.12310217 0.050014086 -0.047511693 -0.016830672
-0.24908216 0.021539735 -0.018710863 0.08946516 0.16086698 0.032313056 0.10287036 -0.1401581
0.04800826 0.098445095 -0.017152805 -0.02064515 0.020352185 0.16473547 -0.07147551 0.034542773
0.18766496 0.06753146 0.04300612 -0.27511796 -0.14409903 0.13679896 -0.3714604 -0.05609511
0.11006503 0.07333816 0.022101616 0.044132967 -0.04716963 -0.10447897 -0.06201479 0.0739151
-0.023265159 0.02172571 -0.04076225 0.07178854 0.062504865 0.038055465 -0.052778076 -0.085937686
0.0047068936 -0.06107775 0.08686757 -0.10118322 0.04721964 -0.28573227 0.32104033 0.42317176
-0.19105859 0.8624099 0.37480602 -0.89823836 -0.1899808 0.055542413 -0.0058218534 0.108905606
-0.08607933 -0.08250382 0.027758576 -0.0011339475 0.016941726 -0.092360176 -0.024798047 -0.099442616
-0.28027344 -0.0803202 0.1884005 0.14870515 -0.062152218 0.0071340767 0.16857627 0.007125944
-0.6133341 -0.003973226 0.2109271 -0.5666826 0.26185074 0.27291116 -0.30784982 -0.12558368
-0.17995502 -0.15729232 0.00026543735 0.1711399 -0.26926693 0.40577385 0.05123786 -0.31205264
-0.005278585 -0.026023215 -0.50403184 0.03586084 0.37105635 -0.29713076 0.32923052 0.44463703
-0.18368381 -0.13373159 -0.12351504 0.18331516 -0.032603566 -0.12357331 0.13760202 0.122753315
-0.04334536 -0.2597763 0.06253931 0.2273526 -0.052891195 0.070906706 0.062098984 -0.095232986
-0.10226285 -0.104003005 -0.067268305 -0.046839353 -0.02248075 -0.025791595 -0.053605884 -0.03358729
-0.038109764 0.102974325 -0.03905196 -0.075507455 0.04406888 -0.005344778 0.08070822 0.065895446
0.09686491 -0.07719929 0.0677636 0.08846322 -0.052045126 0.09688383 0.079011485 -0.028455809
0.050859652 -0.056915946 -0.111489646 0.05266857 0.034961697 -0.09784861 0.039393354 -0.103133924
0.08254082 0.09913047 0.013680302 -0.067339174 0.059984874 0.0086247 0.014361562 0.026642995
0.060543396 -0.07123813 -0.060170967 0.00043811693 -0.0114405 0.07136607 -0.06384733 -0.0063831853
0.021850642 -0.011194833 0.039198063 -0.008251226 -0.13037704 -0.0324311 -0.059053555 -0.008180612
-0.032663174 -0.11953174 -0.029680219 -0.04072792 -0.019383505 0.07284469 -0.036566578 0.087123
0.027935788 -0.10283026 0.014709111 0.08416163 -0.11000468 -0.07820465 0.06754964 0.06589215
00000000: b3a9 07bd e427 3dbe b93c 94bd ab5c 94bd
00000010: 5660 63bd 5663 c93d 143a a3bd 0fbe d23d
00000020: 893e ad3d c386 5a3d a7db cdbd 56bc 2fbd
00000030: a220 bebd 657b 8dbd 1b80 623d 48c7 74bc
00000040: 5a8c 283d 13fb 84bd 5870 7f3c b2d2 82bd
00000050: 284b 573d 783f 3bbd 2309 d4bc 173b babd
00000060: ba13 ce39 a842 cd3d 6210 513d 257d 5abe
00000070: 9b3c 143e 50c5 c7bd 4d30 fbbd 91d3 273e
00000080: c357 1cbe 6ac6 ad3d f85d f2bd 7339 95bd
00000090: 62b5 833c 5248 1c3d 6e7b ab3c 76bc 5fbd
000000a0: efb3 d43d 683a 85bc b52e 7ebd 3a58 50bd
000000b0: 8058 cf3d 42da 28be aadc e3bd a365 babd
000000c0: 9a7d 673d cd50 8dbd 012e 9cbd f9ac 7c3e
000000d0: ceb0 003e e870 ff3d 84f1 a9be 048d 0a3e
000000e0: 1974 78be 5e60 353e c0ef 183e 57e3 2d3d
000000f0: cc43 073f 5734 13bd 8700 073d 32cd 8fbc
00000100: b8d4 1d3e 0ea2 71bb a502 f4bc 10db 553e
00000110: fe1c fcbd 92db 4c3d 9f9b 42bd 7ae0 89bc
00000120: 650f 7fbe 1974 b03c 8647 99bc 8339 b73d
00000130: 50ba 243e b25a 043d b2ad d23d 9b85 0fbe
00000140: 4fa4 443d 959d c93d 0a84 8cbc 0520 a9bc
00000150: a0b9 a63c 6ab0 283e c161 92bd b97c 0d3d
00000160: 3e2b 403e ef4d 8a3d 2f27 303d 43dc 8cbe
00000170: b28e 13be 0715 0c3e 0f30 bebe fcc3 65bd
00000180: c669 e13d 5132 963d 730e b53c c5c4 343d
00000190: f134 41bd 12f9 d5bd 3803 7ebd cd60 973d
000001a0: 9396 bebc 1efa b13c 51f6 26bd df05 933d
000001b0: 8d02 803d 0ce0 1b3d d32d 58bd 1900 b0bd
000001c0: 493c 9a3b aa2c 7abd a0e7 b13d 2639 cfbd
000001d0: 6269 413d 804b 92be 665f a43e f8a9 d83e
000001e0: dda4 43be e5c6 5c3f 93e6 bf3e f3f2 65bf
000001f0: 548a 42be 7180 633d 3fc5 bebb e709 df3d
00000200: 5c4a b0bd c3f7 a8bd f465 e33c f7a0 94ba
00000210: 60c9 8a3c 5527 bdbd 4625 cbbc 92a8 cbbd
00000220: 0080 8fbe eb7e a4bd 10ec 403e 2a46 183e
00000230: 5393 7ebd f9c4 e93b 429f 2c3e c080 e93b
00000240: 7703 1dbf d631 82bb 46fd 573e 1c12 11bf
00000250: 4d11 863e 03bb 8b3e 7e9e 9dbe 0299 00be
00000260: 2146 38be 3d11 21be 662a 8b39 4c3f 2f3e
00000270: 5bdd 89be 97c1 cf3e cade 513d 5dc5 9fbe
00000280: fbf7 acbb a32e d5bc 3b08 01bf d1e2 123d
00000290: 19fb bd3e 8621 98be e790 a83e 77a7 e33e
000002a0: 9c17 3cbe eff0 08be 74f5 fcbd f8b6 3b3e
000002b0: 518b 05bd 0114 fdbd 8be7 0c3e 1766 fb3d
000002c0: e78a 31bd 6601 85be 9c14 803d 1fcf 683e
000002d0: 70a4 58bd 8937 913d 815b 7e3d 8309 c3bd
000002e0: 2f6f d1bd 87ff d4bd f7c3 89bd 9fda 3fbd
000002f0: 8d29 b8bc e548 d3bc d891 5bbd d492 09bd
00000300: fc18 1cbd 34e4 d23d f3f4 1fbd a7a3 9abd
00000310: 9281 343d 3f23 afbb 5a4a a53d 31f4 863d
00000320: 1c61 c63d a91a 9ebd a4c7 8a3d 342c b53d
00000330: 452d 55bd 086b c63d c6d0 a13d 281c e9bc
00000340: 3652 503d b220 69bd af54 e4bd 00bb 573d
00000350: ff33 0f3d da64 c8bd ed5a 213d e137 d3bd
00000360: 290b a93d ea04 cb3d 5823 603c 1fe9 89bd
00000370: b3b2 753d 9d4e 0d3c c24c 6b3c 6942 da3c
00000380: 5afc 773d 4ce5 91bd d575 76bd 0fb3 e539
00000390: ef70 3bbc 6028 923d 64c2 82bd 0a2a d1bb
000003a0: 1e00 b33c 886a 37bc 268e 203d 2630 07bc
000003b0: 8f81 05be 79d6 04bd 24e2 71bd f907 06bc
000003c0: d2c9 05bd 0fcd f4bd ee23 f3bc 52d2 26bd
000003d0: 28ca 9ebc 992f 953d d6c6 15bd 8b6d b23d
000003e0: 98d9 e43c ac98 d2bd 7cfe 703c ef5c ac3d
000003f0: 224a e1bd c229 a0bd 7757 8a3d 77f2 863d

block_2.0.bias f4 [10]
-0.24377199 0.20782757 -0.04644031 -0.11028398 0.022494111 0.023530636 0.2655054 0.48202184
0.7786712 -0.0957077
00000000: 5d9f 79be c0d0 543e 3238 3ebd 91dc e1bd
00000010: 9245 b83c 52c3 c03c 53f0 873e 91cb f63e
00000020: ff56 473f 6602 c4bd

block_2.2.weight f4 [10, 10, 3, 3]
-0.097353205 -0.15813357 -0.12945738 0.16900781 -0.016196165 0.091695525 0.08690312 -0.1448073
0.11794491 -0.085123606 -0.37480348 0.03523714 -0.109787844 -0.028143521 -0.4165968 0.3755732
0.17223383 -0.65435094 0.06485799 0.0022138124 0.087536044 -0.07170725 0.064107254 0.012833339
0.019936802 0.063765496 -0.10125612 -0.12602869 0.06068058 -0.062907 -0.11050612 -0.017093463
-0.047412235 -0.05213814 0.04640588 0.09284384 -0.028531253 0.05389494 0.096971974 -0.0008326123
-0.0053230925 0.049237177 -0.04553432 -0.036983624 -0.044470727 -0.1566559 -0.11286515 0.1615355
-0.07977297 -0.048441548 0.0649934 -0.04039658 -0.0012636927 -0.03268682 -0.47304717 -0.033546057
-0.6843479 -0.31881398 0.10963912 0.3197644 -0.2784211 0.062187515 0.53088075 0.37347493
0.18413651 -0.18195921 -0.04200763 -0.20098959 0.00023000147 -0.06326059 -0.19652861 0.02730218
0.3744274 -0.109027326 0.15581286 0.03191592 -0.4092688 0.17558882 -0.37735048 -0.48540536
-0.2807576 -0.016773444 0.05457859 -0.053845067 0.039289057 -0.09207743 -0.087361924 0.12275697
-0.044626195 -0.08759675 -0.082675636 0.26241747 -0.024480384 -0.21232267 0.21906866 -0.13571653
0.053363785 0.12287432 0.034561418 -0.06640565 -0.024281064 0.023300147 0.2542393 -0.5764211
0.19868957 -0.09034549 -0.4331509 0.16323832 0.030097798 0.000411205 0.065180846 0.0797717
-0.08056469 -0.056718074 -0.025557503 -0.093525134 -0.04361982 -0.042180333 0.11175011 0.105496004
0.15931527 -0.061648365 -0.07773914 0.080777824 0.007238494 0.046944194 0.07436508 0.064333014
0.021890903 0.0562908 -0.032284893 0.019881764 0.058664504 -0.08375292 -0.07923348 -0.048104633
-0.02481654 -0.011991181 0.098664 -0.02535865 0.07233831 0.15554485 0.09138551 0.08558533
-0.099791415 0.20833597 0.25483888 -0.29722586 0.091313116 -0.16673264 0.0018160483 0.22638258
-0.25261307 0.043288354 -0.10335896 0.1859571 -0.119432874 -0.3646649 -0.23547992 0.040639464
-0.39932266 0.20785238 0.020350706 -0.060562458 0.026836064 0.1092969 0.14835174 -0.15091488
0.09687068 0.05842989 -0.015173849 0.0067241993 0.036459904 0.13303299 -0.05647915 -0.04720106
0.03575962 -0.0042878035 -0.0077370033 -0.12622604 0.2981533 -0.06204386 -0.13901033 -0.11553355
0.085665725 -0.24021305 -0.10022074 0.3200495 -0.09982793 -0.44259802 -0.047284722 -0.602043
-0.5464994 0.6009255 -0.15891914 -0.20734988 0.16622093 0.18914181 -0.032410864 -0.029497255
-0.021624353 -0.030691316 0.040209964 0.057220597 -0.006638635 -0.07560942 0.048053704 -0.09698786
0.108906366 0.08642858 0.060398083 0.032502584 -0.091382824 0.052659493 -0.086845696 -0.01944755
0.08184841 -0.12323555 -0.034729205 -0.03256292 0.021994159 -0.10955303 0.07317171 0.025587631
0.0330597 0.25214517 0.098104574 -0.16958559 0.19745044 0.062745616 -0.14683987 0.005646705
0.07106968 -0.15157233 -0.31885487 -0.19298927 0.15346064 -0.2752185 0.016060837 -0.099064775
-0.23585357 0.05839072 -0.05853639 -0.22666818 0.4373392 -0.1924309 -0.36555484 0.46717066
0.13045591 0.13097204 -0.19199184 0.010241317 0.01807723 -0.31771034 0.23519601 0.008009948
00000000: 1e61 c7bd c4ed 21be 7a90 04be 6210 2d3e
00000010: d2ad 84bc ddca bb3d 43fa b13d 5d48 14be
00000020: 1a8d f13d 4955 aebd 3ee6 bfbe d254 103d
00000030: 73d8 e0bd 3e8d e6bc 2d4c d5be 214b c03e
00000040: 115e 303e 8b83 27bf 44d4 843d 9c15 113b
00000050: 1946 b33d 40db 92bd aa4a 833d ed42 523c
00000060: 8152 a33c 7c97 823d 5e5f cfbd aa0d 01be
00000070: 338c 783d 63d5 80bd 0851 e2bd 9707 8cbc
00000080: 5533 42bd cd8e 55bd 1814 3e3d e924 be3d
00000090: 60ba e9bc f1c0 5c3d 3e99 c63d aa43 5aba
000000a0: 566d aebb ecac 493d 3282 3abd 247c 17bd
000000b0: f026 36bd 676a 20be d825 e7bd 9069 253e
000000c0: 0360 a3bd a56a 46bd 421b 853d e276 25bd
000000d0: 7ea2 a5ba 9de2 05bd 3d33 f2be 9767 09bd
000000e0: 6d31 2fbf 963b a3be 7a8a e03d 29b8 a33e
000000f0: 368d 8ebe 56b8 7e3d cde7 073f 1b38 bf3e
00000100: 488e 3c3e 8453 3abe 3110 2cbd 37d0 4dbe
00000110: 8d2c 7139 c58e 81bd cc3e 49be d2a8 df3c
00000120: f3b4 bf3e b849 dfbd 688d 1f3e 45ba 023d
00000130: ae8b d1be 8ecd 333e 1534 c1be 0d87 f8be
00000140: 76bf 8fbe 7668 89bc cd8d 5f3d a58c 5cbd
00000150: 90ed 203d 1793 bcbd cfea b2bd 0268 fb3d
00000160: f5c9 36bd ed65 b3bd d851 a9bd 955b 863e
00000170: 168b c8bc 1d6b 59be 8953 603e 46f9 0abe
00000180: fc93 5a3d 88a5 fb3d 4690 0d3d afff 87bd
00000190: 15e9 c6bc f3df be3c a72b 823e 5590 13bf
000001a0: 4775 4b3e 0e07 b9bd f4c5 ddbe f227 273e
000001b0: a88f f63c 0097 d739 897d 853d 585f a33d
000001c0: 1aff a4bd 3651 68bd f85d d1bc 1b8a bfbd
000001d0: b2aa 32bd 49c5 2cbd 3edd e43d 4a0e d83d
000001e0: 8b23 233e ff82 7cbd b335 9fbd d86e a53d
000001f0: e430 ed3b 8e48 403d b84c 983d 07c1 833d
00000200: 8d54 b33c 2f91 663d 2a3d 04bd 15df a23c
00000210: 314a 703d a786 abbd 2a45 a2bd 5d09 45bd
00000220: 0e4c cbbc a976 44bc 5a10 ca3d f2bc cfbc
00000230: 1c26 943d 2647 1f3e 5428 bb3d 5d47 af3d
00000240: 715f ccbd 0656 553e 3e7a 823e fd2d 98be
00000250: 5f02 bb3d f6bb 2abe 7808 ee3a d6d0 673e
00000260: 8056 81be 214f 313d ddad d3bd 8a6b 3e3e
00000270: 3999 f4bd 5cb5 babe a621 71be 9175 263d
00000280: 0574 ccbe 41d7 543e 86b6 a63c 5710 78bd
00000290: 4ed7 db3c 0ed7 df3d 85e9 173e 6e89 1abe
000002a0: 2364 c63d 2e54 6f3d bc9b 78bc ac56 dc3b
000002b0: fb56 153d cd39 083e ae56 67bd e655 41bd
000002c0: ae78 123d b480 8cbb b086 fdbb 6641 01be
000002d0: 8da7 983e b421 7ebd b958 0ebe db9c ecbd
000002e0: 8371 af3d 69fa 75be 8840 cdbd 87dd a33e
000002f0: 9672 ccbd 359c e2be a0ad 41bd 7d1f 1abf
00000300: 62e7 0bbf 41d6 193f b3bb 22be 8753 54be
00000310: d235 2a3e 64ae 413e 41c1 04bd 3aa4 f1bc
00000320: 8e25 b1bc 5b6c fbbc 34b3 243d 2560 6a3d
00000330: e888 d9bb 1dd9 9abd f6d3 443d 92a1 c6bd
00000340: 4d0a df3d 7801 b13d fb63 773d 6e21 053d
00000350: eb26 bbbd 7bb1 573d 28dc b1bd 7850 9fbc
00000360: 24a0 a73d ec62 fcbd 3640 0ebd b260 05bd
00000370: 182d b43c 575d e0bd 0ddb 953d 279d d13c
00000380: 9c69 073d 2c19 813e 0deb c83d d8a7 2dbe
00000390: 7330 4a3e c680 803d 315d 16be ff07 b93b
000003a0: fb8c 913d c735 1bbe f240 a3be fb9e 45be
000003b0: c924 1d3e 70e9 8cbe 0492 833c 79e2 cabd
000003c0: 9983 71be 1c2b 6f3d dbc3 6fbd b41b 68be
000003d0: ecea df3e 9b0c 45be 012a bbbe fe30 ef3e
000003e0: 3c96 053e 891d 063e 8299 44be 32cb 273c
000003f0: b316 943c eeaa a2be 39d7 703e 283c 033c

block_2.2.bias f4 [10]
0.06290855 -0.22479326 0.16386473 0.12748535 -0.16146177 0.27268425 0.007649804 -0.026057832
-0.049789596 -0.08007752
00000000: 33d6 803d 3430 66be 28cc 273e 858b 023e
00000010: 3c56 25be 459d 8b3e 35ab fa3b 3c77 d5bc
00000020: 2df0 4bbd afff a3bd

classifier.1.weight f4 [10, 490]
-0.0040094717 -0.18537275 0.20458959 -0.0841921 0.053307142 -0.0037921434 0.064201966 0.076478094
0.2612014 0.04613559 -0.14869718 0.021296872 0.05118784 0.046325725 0.09282847 0.049420767
0.15553485 -0.03909134 0.018238086 0.07684275 -0.038096078 0.00061001815 0.07641372 0.086159974
0.05166931 0.13637502 0.08941069 -0.0034543246 -0.05816061 -0.07021541 -0.06776318 -0.033566516
0.13523157 -0.10221258 0.007350151 0.046565693 -0.105779134 0.011682569 -0.13070881 -0.1282374
0.13833512 -0.034425363 0.107262745 -0.13578801 -0.19371386 -0.059008703 -0.05844876 0.2953967
-0.037122034 0.06929619 0.04727561 -0.086295344 -0.02633245 -0.046913 0.10715053 0.109866634
0.06250936 -0.11632483 0.023140952 0.06874698 -0.17650397 -0.025024135 -0.023747755 -0.07077538
0.01772104 -0.0042892937 0.06679173 -0.034609366 0.22782478 0.04716163 -0.026305113 0.055583578
-0.032663167 0.039491482 0.06919774 0.08875095 -0.032289203 0.069992274 0.07154963 -0.062193148
-0.07968805 -0.018200029 0.011210352 -0.07185476 -0.08701862 0.017677112 -0.036353115 -0.108078
0.018925918 -0.0509974 -0.078790866 -0.027199058 -0.13683282 0.19866146 -0.20174526 -0.1743365
0.0601799 -0.03238973 0.0219523 0.13270497 0.12989925 -0.055988558 -0.060228977 0.032727633
0.008897914 0.18018351 0.06703823 -0.019616604 0.06432939 -0.0017043016 0.018531673 -0.036355842
0.048982505 0.083287865 0.1667264 -0.05893711 -0.0023048634 -0.02829806 -0.18330882 0.017604232
-0.028021798 0.14784004 -0.16368406 -0.10825432 0.17350936 -0.09555586 -0.22017562 -0.03548292
0.049790874 -0.072980545 -0.13201262 0.13192743 0.124273 -0.09323953 0.041169673 0.03235269
-0.06817251 -0.112622954 -0.047532745 0.0776282 0.048042458 0.10884835 -0.026796982 -0.115788706
-0.08477943 -0.12256701 -0.1682456 0.20505491 -0.06747811 -0.04778565 -0.03189401 0.13159752
0.06952503 -0.014948724 -0.087989815 -0.11191375 -0.12676075 -0.021647999 0.08755418 -0.12877089
-0.13774991 -0.10125998 -0.000355233 -0.098854885 0.06350335 -0.040240463 -0.06897903 -0.0028231188
0.047678914 0.13960655 -0.03709818 0.0099700475 0.010614037 0.05150044 0.14126544 -0.020059854
0.17829628 -0.031454064 -0.09922965 -0.046184804 -0.051178485 0.21628991 -0.07063936 0.21009143
-0.05142942 -0.085914485 -0.03625221 -0.019517556 0.13993636 0.0010477478 0.0024871866 -0.09704249
-0.020995915 -0.12016906 -0.04174859 0.078197815 0.012483649 0.002592686 -0.029957946 -0.027342206
0.032891452 0.0056721736 0.016237732 -0.013750466 0.025467364 0.10553617 0.028999398 0.010541315
-0.009811207 -0.053842288 0.013009772 0.109413385 0.00687025 0.05466861 -0.029181845 0.21562135
0.036867555 0.043764014 0.042743854 -0.15224113 -0.011386875 0.01934618 0.16473046 0.015138222
0.03671863 0.03528579 -0.04934767 -0.00983609 -0.05451976 -0.0054846373 -0.013361992 -0.031410992
-0.027450643 -0.008280352 0.018491542 0.024169037 0.045370273 -0.08668542 0.006285506 0.049797013
0.0018158401 0.034310777 -0.049373828 -0.028658213 -0.04183905 0.0008413095 0.11705643 -0.034202237
0.031277217 0.024500636 0.29953238 0.12407547 -0.035325777 -0.067484826 0.13839117 0.062083106
00000000: e361 83bb 5bd2 3dbe ef7f 513e e86c acbd
00000010: 9758 5a3d 9c85 78bb 527c 833d 8ca0 9c3d
00000020: 31bc 853e acf8 3c3d 1344 18be c776 ae3c
00000030: 57aa 513d 0bc0 3d3d da1c be3d 6e6d 4a3d
00000040: 8744 1f3e 3e1e 20bd 0a68 953c bb5f 9d3d
00000050: a20a 1cbd a0e9 1f3a cc7e 9c3d a474 b03d
00000060: 33a3 533d e5a5 0b3e f41c b73d f361 62bb
00000070: d239 6ebd 19cd 8fbd 6cc7 8abd 0b7d 09bd
00000080: 257a 0a3e d454 d1bd 89d9 f03b abbb 3e3d
00000090: bba2 d8bd 3f68 3f3c 88d8 05be aa50 03be
000000a0: b9a7 0d3e 9c01 0dbd 92ac db3d 030c 0bbe
000000b0: ed5c 46be 1cb3 71bd f867 6fbd 3c3e 973e
000000c0: 460d 18bd 29eb 8d3d 12a4 413d 9dbb b0bd
000000d0: 26b7 d7bc d927 40bd bd71 db3d c201 e13d
000000e0: e804 803d b63b eebd 1892 bd3c 37cb 8c3d
000000f0: 75bd 34be 6aff ccbc a78a c2bc aff2 90bd
00000100: b72b 913c 348d 8cbb 1aca 883d 8dc2 0dbd
00000110: e64a 693e 8e2c 413d d27d d7bc 9bab 633d
00000120: d0c9 05bd d2c1 213d 8bb7 8d3d 0fc3 b53d
00000130: af41 04bd 1c58 8f3d 9d88 923d 3ebe 7ebd
00000140: 7d33 a3bd 3a18 95bc a0ab 373c 9728 93bd
00000150: d136 b2bd 97cf 903c 01e7 14bd 0058 ddbd
00000160: 870a 9b3c a6e2 50bd 1b5d a1bd 8fd0 debc
00000170: e71d 0cbe e96d 4b3e 4f96 4ebe 4485 32be
00000180: 337f 763d 18ab 04bd 4fd5 b33c d0e3 073e
00000190: 4f04 053e 4254 65bd a9b2 76bd 690d 063d
000001a0: 8ec8 113c 0782 383e 574b 893d 00b3 a0bc
000001b0: 21bf 833d df62 dfba bccf 973c dde9 14bd
000001c0: e1a1 483d d492 aa3d 53ba 2a3e 0a68 71bd
000001d0: 310d 17bb 55d1 e7bc 4fb5 3bbe c036 903c
000001e0: f88d e5bc 6163 173e cb9c 27be 71b4 ddbd
000001f0: 70ac 313e cab2 c3bd b875 61be 8a56 11bd
00000200: 84f1 4b3d d376 95bd 512e 07be fc17 073e
00000210: d882 fe3d 5ef4 bebd 88a1 283d 4184 043d
00000220: 079e 8bbd dda6 e6bd b2b1 42bd 89fb 9e3d
00000230: 2bc8 443d e2eb de3d 5885 dbbc a122 edbd
00000240: d6a0 adbd 6a04 fbbd 9348 2cbe eaf9 513e
00000250: f731 8abd e3ba 43bd 4ba3 02bd 80c1 063e
00000260: 2463 8e3d 7eeb 74bc 0134 b4bd 0933 e5bd
00000270: 92cd 01be 2557 b1bc 9b4f b33d 84dc 03be
00000280: 500e 0dbe 6461 cfbd 913e bab9 6e74 cabd
00000290: 0b0e 823d 2fd3 24bd e144 8dbd 1304 39bb
000002a0: f74a 433d 05f5 0e3e 43f4 17bd 6959 233c
000002b0: 7fe6 2d3c 20f2 523d e3a7 103e 9054 a4bc
000002c0: 4d93 363e fad5 00bd ea38 cbbd 472c 3dbd
000002d0: 88a0 51bd 1a7b 5d3e 5eab 90bd 3522 573e
000002e0: a8a7 52bd eff3 afbd 337d 14bd 48e3 9fbc
000002f0: 7a4b 0f3e 9554 893a 1100 233b 37be c6bd
00000300: a0ff abbc 321b f6bd 9200 2bbd 2d26 a03d
00000310: 3888 4c3c 0eea 293b 5e6a f5bc c3fc dfbc
00000320: 30b9 063d a4dd b93b fe04 853c a249 61bc
00000330: efa0 d03c 5923 d83d 2590 ed3c 7bb5 2c3c
00000340: 2fbf 20bc bb89 5cbd f026 553c 2014 e03d
00000350: d61f e13b 31ec 5f3d c40e efbc d8cb 5c3e
00000360: 6f02 173d e541 333d 2e14 2f3d 19e5 1bbe
00000370: 0490 3abc e17b 9e3c 1aaf 283e 4e06 783c
00000380: 4666 163d d587 103d c820 4abd 8d27 21bc
00000390: 1d50 5fbd 79b8 b3bb 42ec 5abc d0a8 00bd
000003a0: 2ce0 e0bc 50aa 07bc 937b 973c 25fe c53c
000003b0: 2ed6 393d 2088 b1bd a5f6 cd3b f4f7 4b3d
000003c0: 7c01 ee3a 7589 0c3d 363c 4abd a1c4 eabc
000003d0: 6c5f 2bbd 538b 5c3a 48bb ef3d a517 0cbd
000003e0: 8a1c 003d 8fb5 c83c 4f5c 993e 481b fe3d
000003f0: c3b1 10bd 7c35 8abd 6ab6 0d3e db4a 7e3d

classifier.1.bias f4 [10]
0.095029145 -0.16613851 0.45273924 -0.071874805 -0.34584987 -0.16341648 0.1345811 -0.012638274
0.15466468 -0.11392199
00000000: a49e c23d 3720 2abe 70cd e73e 1933 93bd
00000010: 3c13 b1be a656 27be a1cf 093e c310 4fbc
00000020: 6b60 1e3e ef4f e9bd
