06-Modular/exercise/exercise_model/TinyVGG.pth (torch, 89912 bytes, 10 tensors)

convblock1.0.weight f4 [20, 3, 3, 3]
00000000: aedc 66bd c7b9 433e 5a97 2e3e ab13 493d
00000010: a494 d23b 6049 6fbd c0b6 f63d cc36 2f3e
00000020: 38a1 0cbb b500 2f3e 24ea 003e 69f3 3cbd
00000030: d8c8 393e 43d7 b0bd 7010 73bc 8413 dfbd
00000040: ec93 7cbd 4b88 0dbd 5ec5 eabd 7a8e d7bc
00000050: 221d b6bd 55c2 e23c 2f86 593d 43bf cfbd
00000060: 83b2 393e 29ec ddbb a571 1a3e 283c 123e
00000070: c8fc c93d 08f6 87bd 2883 ed3d 4bb4 35be
00000080: c527 273e 39df 00be fc0b 39bd 0a45 da3d
00000090: 6fbe b83d 817d 2abe f8ec 43be 3737 03be
000000a0: a276 c23d c818 143e 7780 8b3d 9ee9 363c
000000b0: 7823 90bd 9d14 893d b179 413e 1643 dc3d
000000c0: 3082 90bc 46f6 bfbd d122 2abd 0511 533c
000000d0: 4c28 c03d 00a4 b43d 529b 653d 67cc 18bd
000000e0: 99db 033d 0607 12be 5ec0 083c 8ac5 2fbe
000000f0: 772d 33bd f619 8dbd 5909 ccbc daa0 fabd
00000100: da8c b1bd 996e 12bd 9166 693d bd16 a5bd
00000110: f261 343e cee8 57bd c692 113e b4a8 2fbd
00000120: f995 1ebe b87c ee3d 536f 083e c41a 1bbe
00000130: 0602 dcbd d81d 023e 03d9 0cbe dfea 933d
00000140: 35fb a93d 36e3 13be 06e8 41be e418 d6bd
00000150: b4e3 013c 5e38 1abd 0aad d03d ccd8 24bc
00000160: b29e 643c e684 e6bd ec0a 2d3e 8d54 3b3e
00000170: 335a b3bd 7780 37be be15 dc3d b2aa 0cbe
00000180: be42 243e 6bd1 173e df35 8bbd c890 abbd
00000190: 2d0e 013e 419f 2a3e 3257 14be 201b d63d
000001a0: 3ae9 fb3c 3013 f4bd 4445 b33d 9df7 12be
000001b0: 88de 49bd b269 a93c d399 85bd ea06 13be
000001c0: 2e42 52bd 64ed 333e efcc 37be 297a 863d
000001d0: 7e34 233e b2d1 2bbe 34e6 a0bd 3ba8 1cbe
000001e0: fdc3 283e 6100 1bbe 8a02 35bc 79ac 1ebe
000001f0: 1923 8e3c 201c b0bd 1e12 e0bd 4acc d13c
00000200: 4e62 d13c a07a 213e 5b1a 423e 3564 913c
00000210: 743d 193e acc1 39bd cc07 e2bc 07f1 8fbd
00000220: 060b 0b3e 993e 303e ec59 523d 5b7a 9e3d
00000230: 46ee a03d 9687 eabc d853 5e3c 0dfa bb3d
00000240: db55 d43c f8b7 32be a286 2fbe f63b 30bd
00000250: c0e5 9e3d 5d02 863d 71a8 b83d 641b 2a3d
00000260: a725 f83c 8f6e 243e 6d58 2d3d 0e29 b8bd
00000270: 9d2c d83c fb2d 233e f728 90bd aa83 51bc
00000280: 6de4 b8bd c69c 563d 469b 02be 3390 50bd
00000290: e91d b2bd 4d2f 29be be0d d0bd 6ccd b7bc
000002a0: 0051 33bd dfa0 053e 3334 f13d 6a1d 36be
000002b0: 07be c23d b6d1 3f3e 4fba c0bd 1f18 60bc
000002c0: 9844 26bd 50c0 f4bc ee56 f5bd e208 0ebe
000002d0: 56b7 c5bb 5808 423e e3b8 bcbd 517c aebd
000002e0: d538 1bbd aade 0fbe a1a3 243d ee26 f9bd
000002f0: 5259 16be a8f8 193e f7a2 c6bd 9045 ffbd
00000300: d493 513c c7a2 37be 63b8 fb3d 4e26 4dbd
00000310: 1f1e 0b3e 3f48 0f3e 4aa3 293e e6f6 993d
00000320: 9a97 2c3e 4ba9 6abd 7e8a 063c bfb5 ecbd
00000330: df0c 2cbe 33f7 8c3d 17db c13d a942 28be
00000340: c811 ccbc a92b 363e db8c 41be 2bcd 48bc
00000350: 3e41 873d 50c8 25be 4c73 91bd 2a69 07bc
00000360: 23d3 1cbe a3a6 143e 1ae0 a43d 98aa 2abc
00000370: 5608 d63d 9734 383d afbb 47bd 443e 0ebe
00000380: 8181 3abb 07f3 923d 68e7 2cbd e823 053e
00000390: 0579 bebd 42ff f03d 97ef 8cbc e7d7 f43d
000003a0: 519a 08be 743a 1bbe 8745 8c3d c2ea adbc
000003b0: 15bd 4dbc 38ae 2b3e d9e2 0ebd fbcd 9d3d
000003c0: 248d e33d c493 4e3d 1c95 3abe f6a1 01bd
000003d0: 7337 253e 24e6 2bbe 8972 2a3e c602 efbc
000003e0: 969e 3fbe fcc1 9c3d c7d3 2ebe 5471 30be
000003f0: f1d3 343d 2074 f9bd eb94 d0bd 8fc0 7d3d
-0.0563628 0.19113837 0.17049924 0.049091022 0.0064264107 -0.058419585 0.120465755 0.17110747
-0.0021458399 0.17090113 0.12589318 -0.04613057 0.18143022 -0.08634808 -0.014835462 -0.10892394
-0.061664507 -0.034553807 -0.11463426 -0.026313055 -0.088922754 0.027680555 0.053106483 -0.10143902
0.18134503 -0.0067725373 0.15082414 0.1428076 0.09862667 -0.066387236 0.11597282 -0.17744558
0.16323765 -0.12585153 -0.045177445 0.106576994 0.09020697 -0.16649438 -0.19133365 -0.12814032
0.09495284 0.14462578 0.06811612 0.011164097 -0.07038015 0.06693385 0.18894078 0.10754983
-0.017640203 -0.09373145 -0.04153711 0.012882476 0.09382686 0.08820343 0.056056328 -0.03730431
0.032191847 -0.14260492 0.008346645 -0.17165199 -0.04374453 -0.06889717 -0.024906801 -0.12237711
-0.086694434 -0.035750005 0.05698258 -0.080609776 0.17615488 -0.052712254 0.14216146 -0.042885497
-0.15486898 0.11644882 0.13323717 -0.15146929 -0.107425734 0.12706697 -0.13754658 0.072225325
0.08299867 -0.14442143 -0.18936166 -0.10453966 0.007927824 -0.037651412 0.101892546 -0.010061454
0.013953852 -0.11255817 0.16898698 0.18293972 -0.087574385 -0.17920099 0.107463345 -0.1373699
0.16041085 0.1482598 -0.067973845 -0.08377224 0.12603064 0.16662313 -0.14486387 0.104543924
0.03075086 -0.11917722 0.08753446 -0.1435227 -0.049284488 0.020680282 -0.0652348 -0.14358106
-0.051332645 0.17571026 -0.1794927 0.06566269 0.15937993 -0.16779211 -0.07856408 -0.1529855
0.16481014 -0.15136863 -0.011047969 -0.1549548 0.01735072 -0.085991144 -0.109409556 0.025610108
0.02555957 0.15769434 0.18955366 0.017747978 0.14964849 -0.045350716 -0.027591608 -0.07028394
0.13578424 0.17211379 0.051355287 0.07738181 0.07857947 -0.028629106 0.013569795 0.09178553
0.025919845 -0.17452991 -0.17141202 -0.043025933 0.07758665 0.065434195 0.09016503 0.041530028
0.030291392 0.160578 0.042320658 -0.089922056 0.02638846 0.15935509 -0.070390634 -0.012787739
-0.09027944 0.052395605 -0.12754545 -0.05091877 -0.08697111 -0.1652195 -0.10158871 -0.02243682
-0.04377842 0.13049649 0.11777534 -0.17784658 0.09508901 0.18732342 -0.094105355 -0.013677626
-0.04059276 -0.029876858 -0.11979471 -0.13870576 -0.0060338182 0.18948495 -0.09214952 -0.08519805
-0.037895996 -0.14049783 0.04019511 -0.121656284 -0.1468251 0.15036261 -0.09699052 -0.1246444
0.012791593 -0.17933188 0.12291028 -0.05008536 0.13585709 0.13992403 0.16566196 0.07517795
0.16854706 -0.057290357 0.00821173 -0.11558103 -0.16801785 0.06883087 0.09465616 -0.16431679
-0.024910823 0.17790093 -0.18901388 -0.012255947 0.06604241 -0.16189694 -0.07102069 -0.008264819
-0.15314917 0.14516692 0.080505565 -0.010416649 0.10450809 0.04497203 -0.048762973 -0.1389094
-0.0028458538 0.0717526 -0.042212874 0.13001978 -0.093004264 0.117674366 -0.01720409 0.119552426
-0.13340117 -0.15159017 0.06849199 -0.021230105 -0.012557288 0.16765678 -0.034884308 0.07705303
0.11110905 0.05043389 -0.18220943 -0.0316486 0.16134433 -0.1678701 0.16645254 -0.029176127
-0.1871284 0.07654187 -0.17072974 -0.17230731 0.044147436 -0.12180352 -0.10184654 0.061951216

convblock1.0.bias f4 [20]
00000000: e6c7 8d3d b265 b33d 161f fa3d 01ac 2fbe
00000010: d41d bbbd 360d d13d b354 edbd 3ca3 5abd
00000020: 9092 19be 114a 2b3e c554 b0bc ba48 ce3d
00000030: 852c 833a e929 11be 8b50 fc39 6565 bbbd
00000040: f933 e8bd ed15 f73d a8f8 24bc b41c f1bd
0.06922893 0.08759631 0.122129604 -0.17155458 -0.09136549 0.10207598 -0.11588421 -0.05337833
-0.14997315 0.16727473 -0.021524796 0.10072465 0.0010007775 -0.14176144 0.00048125195 -0.09150199
-0.11338038 0.12064729 -0.01006905 -0.11773053

convblock1.2.weight f4 [20, 20, 3, 3]
00000000: 2d36 22bd 62f7 563c 0eb2 5f3d 9e94 203d
00000010: 676f 143d 8843 743c 3f8d 86bd 627c f9bc
00000020: 03e0 8d3c faaa 56bd 9f31 73bc 04e0 833d
00000030: b413 2dbd 998d 4d3d 6f71 13bd 41d0 61bd
00000040: 9b4f ffbc c91f dd3c 27a6 4e3d d972 66bd
00000050: a5db b9bb 8ad0 28bc 776d 033d efa5 6fbd
00000060: fcda 963c 2320 a13c c74a 18bb 4846 dd3c
00000070: d4ea 8f3c 97eb b9bc 8260 02bd 7146 ef3b
00000080: 0ac7 f63c 576a 34bd 01b2 2f3d c1c8 a13c
00000090: 64ca 96bd 0eb3 653b a325 85bd 8d01 4ebd
000000a0: 6dae 52bd c220 083c 76ae cab9 15bd 51bd
000000b0: 12d0 053a d1b1 1c3d 0eee 8abd 2a85 963d
000000c0: f109 873d 31bf 433d d567 eabc f13a 833c
000000d0: 0988 283d 8077 cd3c 3da6 71bd 0942 163c
000000e0: 0323 3fbd 6592 53bd eaca 55bd 0918 493d
000000f0: ef48 813d 875b 17bd ce12 433d 426f 7abc
00000100: ab59 5a3d 9414 413d a38c b8bc f733 553b
00000110: c84e f83b f72c 3cbd 1058 043d cc33 e33c
00000120: 752d b3bc 8850 88bd 592f 99bc 1e2a 83bd
00000130: 35b1 4b3d 9707 1bbd 57ed f63c d085 7bbc
00000140: 6dd0 53bd 430b b5bc 5573 c63c d8f3 e63c
00000150: b6c7 00bd 98dc 05bd 60bb 443d 11fe 893d
00000160: 2ae8 3cbd 3987 acbc 99b6 0dbd 5815 fc3c
00000170: 82bd 91bd aff0 10bc dcbb 1c3d 7358 873d
00000180: 133a 5dbb 0062 813d 81b3 2b3d 8ae1 31bd
00000190: 2023 033d 0638 3ebc b50c 5fbd d0cd f03c
000001a0: d2c6 65bb a02a 8bbd 0ff5 4bbb 31d1 3cbc
000001b0: d7d8 05bd cf8a 443d f62d 11bd 2d5b 72bc
000001c0: b751 6e3c d414 84bd 0bf8 963d 1aa0 a13c
000001d0: 0e33 2cbd 250e 393d b00d 10bc 751e 2cbd
000001e0: f199 f13c 28be d83c 62f6 e3bb 9e21 033d
000001f0: f0fc 713d d6c2 f7bc bbaa 5a3d 483f 463b
00000200: b74e ea3b a675 bd3c 93c2 493d 87b6 113d
00000210: d3c2 99bc 682a 183d 54f0 333c ab39 9d3d
00000220: 671f 5ebd 92bd 6cbd 9065 623d 97de 8a3d
00000230: ab89 053d d823 0abd ef55 4b3c 4761 18bc
00000240: 3c2d 773d 2f56 2e3d 920b 03bd 0984 4d3c
00000250: d02e 6abd b562 983b 8c92 db3b 2ad3 613d
00000260: 6306 25bd c301 8e3d 0fa0 8f3d 77af ca3c
00000270: 2b56 0abd 806f 5d3d 4bd4 6dbd a408 58bc
00000280: b326 553d 3541 053d 09dd 6abc 3a04 9abc
00000290: 8c51 373d ed7b 21bc a1ae 3cba cd18 c1bc
000002a0: e3d1 39bc 2344 7fbd 10ee 5ebd ca96 663c
000002b0: 81da 6eba 5e7d 433d 8a00 073c 543a e43c
000002c0: e732 403c 0f54 333d cfcc 64bd 8d16 a73d
000002d0: 3ba2 c23c 8d35 a7bd 4c4a afbd 9f6d c1bc
000002e0: 9ef7 d83c 3a80 213a ca59 babc 9c64 1bbd
000002f0: e29f 95bd 3b05 5ebc ab12 043c 88c2 513d
00000300: 6a3c b03c 2a55 d5bc b0b7 6c3b b93b 9fbb
00000310: 0e69 073d 006a eb3c 2339 4abd cc74 3bbc
00000320: e2c0 083d 43a1 15bc 212d 1dbd 555f a03d
00000330: 4dc2 56bd a23d d63b cdb2 523d b3db 413d
00000340: b97f 41bd bd5a 87bd 102d 13bd 4adb 1dbd
00000350: c337 82bd 7b6c adbc c67e 5f3d e690 d1bc
00000360: cd2b 9f3c 10c3 97bd b1dc f3bc ffc0 5a3c
00000370: 3c21 1abc 7bbf 573d 833f 803d 95c8 04bd
00000380: b389 793d f3e3 533d 8a2b 30bd 1eaf 51bd
00000390: 4f14 a3bd 7680 89bc c77f b93b 613b 683b
000003a0: b1bc 0d3d c420 5cbd 69a8 cf3c ca8e 91bc
000003b0: a3e1 7cbd 65d2 41bd d77f 04bd afbb 6abc
000003c0: 66e8 d23a a78e 823d 9912 60b9 ca35 8abc
000003d0: 3e5e 743d cb87 85bd bc51 e9bc 69b3 bb3b
000003e0: 3950 8b3d e11f 85bd dc3c a23c 30b8 15bc
000003f0: f3c2 72bd 523d 73bd 6d35 273d a241 7e3d
-0.039602447 0.013120504 0.054613166 0.039204232 0.036239054 0.014908679 -0.06569909 -0.030454818
0.017318731 -0.05240915 -0.014843374 0.06439212 -0.04225512 0.050183866 -0.03599685 -0.055130247
-0.031165889 0.026992695 0.050451424 -0.05626187 -0.0056719356 -0.010303626 0.032086816 -0.058507856
0.018414967 0.019668644 -0.002323793 0.027011052 0.01756803 -0.022695346 -0.03183032 0.0073020984
0.030124206 -0.044046726 0.042894367 0.019749047 -0.07362822 0.0035049352 -0.06501319 -0.050294448
-0.051435877 0.008308591 -0.00038658426 -0.051205713 0.0005104552 0.038255516 -0.067836866 0.07349618
0.06593693 0.047789756 -0.028613964 0.016019316 0.04114536 0.025081396 -0.058996428 0.009171017
-0.04666425 -0.051653285 -0.052195467 0.049095187 0.06312739 -0.03695252 0.047625355 -0.015285315
0.05330817 0.047138765 -0.022527998 0.0032532194 0.007577751 -0.04594132 0.032310545 0.02773466
-0.021872262 -0.06655985 -0.018699335 -0.064045176 0.049729545 -0.037849035 0.03014247 -0.015351728
-0.051712442 -0.022100097 0.024224916 0.028192446 -0.03144046 -0.032681078 0.048030257 0.067379124
-0.046119846 -0.021060573 -0.034597967 0.030771896 -0.07116224 -0.008846446 0.038265094 0.06608667
-0.0033756539 0.0631752 0.041919235 -0.04342798 0.03201592 -0.011610037 -0.054455478 0.029395014
-0.0035061133 -0.067952394 -0.0031121408 -0.0115244845 -0.032677498 0.04798394 -0.035444222 -0.014792246
0.0145458495 -0.06449285 0.07371529 0.019729663 -0.042040877 0.045179505 -0.008792326 -0.042021234
0.02949235 0.026457861 -0.0069568614 0.03201448 0.05907911 -0.030244272 0.053385478 0.003025012
0.007150497 0.023127388 0.049257826 0.035574462 -0.018769657 0.037149817 0.010982592 0.07677015
-0.054229166 -0.057797976 0.05527264 0.06780737 0.032601994 -0.03372559 0.012410625 -0.0093005365
0.060345873 0.04256266 -0.031993456 0.012543687 -0.05717355 0.0046504387 0.0067008194 0.055133022
-0.040289294 0.0693393 0.07012951 0.024741871 -0.033773582 0.054061413 -0.058063786 -0.013185654
0.05203886 0.03253289 -0.014334925 -0.018800844 0.044755504 -0.009856206 -0.00071976526 -0.023571396
-0.011341545 -0.06232084 -0.054426253 0.014074037 -0.0009111539 0.04772698 0.008239875 0.027859844
0.011730886 0.043781336 -0.055859383 0.08158598 0.023758998 -0.08164511 -0.08559093 -0.023611842
0.02648526 0.000616077 -0.022747893 -0.037937745 -0.07305886 -0.013551052 0.008061091 0.05121091
0.021513183 -0.026041586 0.0036120228 -0.0048594144 0.033059172 0.028737068 -0.049370896 -0.011441421
0.033387072 -0.009132686 -0.038373116 0.07830683 -0.052431393 0.006538109 0.05144005 0.047328662
-0.047240946 -0.06609104 -0.035931647 -0.03853921 -0.06358292 -0.021169892 0.05456426 -0.025581788
0.019430066 -0.07410252 -0.02976832 0.013351678 -0.009407338 0.052672844 0.06262114 -0.032417852
0.060922336 0.05173106 -0.043010272 -0.051192395 -0.07962858 -0.016784888 0.005660984 0.0035435783
0.03460378 -0.053742185 0.025348859 -0.017768282 -0.06173862 -0.04731979 -0.03234848 -0.014326974
0.0016090989 0.06374865 -0.00021369233 -0.016871352 0.05966019 -0.06520041 -0.028481357 0.0057281745
0.06802411 -0.06500221 0.01980441 -0.009138152 -0.05926795 -0.05938465 0.040822435 0.06207431

convblock1.2.bias f4 [20]
00000000: 83d9 7a3c 4ce1 de3d 20a5 3fbd 14c7 513d
00000010: 24f4 803d adec b0bd 5c1f 9abb 541d 4abd
00000020: 6740 5abd d2fe b3bd 0d39 54bc 3183 45bc
00000030: 8ac0 753d 3481 49bd 3288 69bd 4ecb 98bd
00000040: b1db 3b3d 72fc a33d af81 0c3a e6df e1bd
0.015310648 0.10882816 -0.046788335 0.051215246 0.06296566 -0.08638892 -0.0047034454 -0.049344376
-0.053284075 -0.087888375 -0.012953055 -0.012055204 0.059998073 -0.049195483 -0.05701465 -0.07460652
0.04586381 0.080071345 0.00053599005 -0.11029033

convblock2.0.weight f4 [20, 20, 3, 3]
00000000: 152f 4bbd 505d 83bd 41b6 4d3c 2e53 5c3d
00000010: 28fa 483d eafc a83c 205b 843d 53cf 1cbd
00000020: 43d6 b73c 6289 bb3a f8dc 83bd b376 2ebd
00000030: b34b b1bd f3a9 63bd 0a84 86bd 5da7 dd3c
00000040: f567 313d 99eb 9c3b 198f ddbb 051b b2bc
00000050: 886b 303b b62a 823d b261 f4bc ec7e 93bc
00000060: 7b0c 7e3c 91c7 25bd e38f fbbb 1cea 373d
00000070: 1d3f 93bd 1a16 47bd f775 533d a88f 333d
00000080: 7750 e33c d016 85bc b076 803c a19d 423c
00000090: c27b 533c d805 483d 900d 93bd ccab 95bd
000000a0: 3b35 edbc eae2 81bd cbf8 7c3d 2347 10bd
000000b0: b544 2f3d ec02 22ba bf31 2abd d0e7 913d
000000c0: ccd4 1a3d 18be 953d e68d 69bd bd61 32bd
000000d0: b86a cebc af40 5cbd c913 163d 8e1c c1bb
000000e0: 24c4 553c 5a5d 81bd 0c1b 95bd e032 dfbc
000000f0: 0f7a 88bd c03d 1bbd 5faf 173c 8cb7 973d
00000100: f1be 6b3d 89ef 6b3d ebc6 92bc d5b6 2c3b
00000110: 5e60 34bd 8307 693d ffff 3ebd 6581 4a3d
00000120: 5efb 123d a4fc 493d 66bd 473d 961f 13bd
00000130: 1bf9 123d 4d0c a03c e364 84bd d586 7dbc
00000140: 591a 103c 6be4 7a3d 27a3 adba 824a 4abd
00000150: 0096 863d 1ed2 cfbb 7554 14bc 13f9 51bd
00000160: f37b 6c3d 0e2b fcbc 9802 39bd b7a2 5abd
00000170: dd42 7a3b 800b 2d3b 8e69 5b3d 0ba4 16bd
00000180: 52cc 81bd 978e df3c b0bb 933d 9e91 87bd
00000190: 80e1 d23b 647d f43b 856b ce3c 7bf3 abbc
000001a0: 25b5 8dbd 6382 703c 7dda e2bc 8f64 51bd
000001b0: eada 873d d666 fc3c d803 65bd 2e96 a9bc
000001c0: 7892 913d 00b6 b5bc 847a e73b 3582 bdbc
000001d0: 40bb 133c cf1b 80bc 7d5f 39bd dd6c 103d
000001e0: f89a 813d c757 37bd 9013 123b 20f7 87bd
000001f0: 88a3 403d 0ee5 65bc 1f50 ce3b 4b16 2a3d
00000200: 6a20 62bb 4aad 823d 6faf 13bd ec0a 92bd
00000210: a1ad 973d fa5f da3c 5094 42bc 60fb 8ebd
00000220: 05f5 8d3c 393b 9dba bfc3 dcba 1a25 bb3c
00000230: 23bc 003d 5a2c 873d fc37 a73c 4fb8 df3c
00000240: 07b7 103d 7ba7 80bd a6e4 8fbd d650 f13c
00000250: ea6a 9c3c 6800 34bb 6a74 0f3b 52a2 ac3c
00000260: f448 29bd 8856 ee3a 34ed 84bd 544b 8f3a
00000270: eddb 89bd 102c 83bb 742d 84bd 4e68 a9bc
00000280: 069a 713d 6436 1f3d 4741 89bd 2892 bd3c
00000290: e276 10bd 932c 953d 3736 363d 9f3c 93bd
000002a0: e414 5c3d 0c79 9e3c 7b68 76bd 90c6 943d
000002b0: 7c56 88bb 938e 69bc 6f66 593b 7ee9 a4b8
000002c0: 5079 503d ebd9 803d f309 6fbd 8100 69bd
000002d0: 4c09 f8bc e4be 553c 1a25 e8bc cde4 f2bc
000002e0: abe6 683b 4e3b 8a3c ba8b 953d 92e1 8b3d
000002f0: 21c9 783d 2d39 983d 34d9 e4bc 013f de3c
00000300: 5a8f 94bd f9b6 36bd cb6d 63bc c306 923d
00000310: f599 ba3c 6067 303d 6174 563d d6b0 90bd
00000320: efbe d93a 04d2 8e3d 7274 13bd a11e 963d
00000330: 2438 96bd 69ca 00bd 2013 d43c 5fe6 7dbd
00000340: a024 ddbc 9553 31bd f0ef 913d ba72 e9bc
00000350: b240 003d 18c0 7a3d 33e7 dd3c 170a 22bd
00000360: 994e 3a3d b62d 2cbd cd2c 0ebd 2ab9 86bd
00000370: 2a4b fe3c cad6 303d 71d4 ce3c 7d27 1c3d
00000380: 0043 42bd 5eae 683d a2a0 1cbd 9dbe 04bd
00000390: 3f2f 3ebd 81c0 3cbd 26e9 a9bb e0a7 3e3d
000003a0: 717c cdbb 95a1 3fbd ecf1 43bd da39 703d
000003b0: ba46 183d c4f0 c23b 4f57 3fbd 9eb1 d53c
000003c0: 4b15 57bd 6f64 cc3c 66be c73b c7d1 85bd
000003d0: 70a6 dcbc fc1f ce3c e1e7 823b 9520 26bd
000003e0: e905 053d 0b72 833d fb8a 57bc 71aa 843c
000003f0: 93fd df3c 92e1 3cbd b50c 8e3d 647e 723d
-0.049605448 -0.06414282 0.01255566 0.053790264 0.049066693 0.020628411 0.06462693 -0.038283657
0.022441035 0.0014307911 -0.06438631 -0.04259367 -0.086570166 -0.055581998 -0.06568153 0.027057344
0.04331203 0.0047888276 -0.0067614433 -0.0217414 0.0026919562 0.06355803 -0.029831741 -0.018004857
0.015505905 -0.040473524 -0.0076770647 0.044901 -0.07189772 -0.048605062 0.051626172 0.043838173
0.02774833 -0.01624623 0.015681595 0.011878402 0.012907924 0.048833698 -0.07180321 -0.07308158
-0.028956046 -0.063421085 0.061760705 -0.03522409 0.042790134 -0.0006180245 -0.041551348 0.07124293
0.037800595 0.07311648 -0.05702009 -0.04355024 -0.025197372 -0.053772625 0.036639962 -0.0058932966
0.013047252 -0.063166335 -0.072805494 -0.027245939 -0.06663906 -0.037900686 0.00925812 0.07408056
0.057555143 0.057601485 -0.017917117 0.0026354094 -0.044037215 0.05689193 -0.046630856 0.049439806
0.035884254 0.049313203 0.04876461 -0.035918795 0.035882097 0.019537115 -0.06464555 -0.015474041
0.008795344 0.061252993 -0.0013247476 -0.049387462 0.06571579 -0.0063421866 -0.009053339 -0.051262926
0.057735395 -0.030782249 -0.04516849 -0.053377833 0.0038186826 0.002640456 0.05356746 -0.036777537
-0.06337799 0.027289672 0.07213533 -0.06619571 0.006435573 0.007461237 0.025197754 -0.020990124
-0.06919316 0.014679524 -0.027692074 -0.05112129 0.066335514 0.030810755 -0.05591187 -0.020701494
0.07108015 -0.02218151 0.0070641655 -0.023133377 0.009016812 -0.01563826 -0.04525708 0.03526007
0.06328386 -0.044761445 0.0022289492 -0.06638932 0.047030956 -0.014031662 0.0062961723 0.041525166
-0.0034504184 0.063807085 -0.03605598 -0.071309894 0.07406164 0.026657093 -0.011876181 -0.0698154
0.017328748 -0.0011995799 -0.0016843005 0.02284484 0.03142942 0.06600256 0.020412438 0.027309565
0.0353308 -0.06281944 -0.07026033 0.02945749 0.01909395 -0.0027466062 0.0021889457 0.021073494
-0.04132934 0.0018183747 -0.064905554 0.0010932484 -0.06731401 -0.0040030554 -0.06453982 -0.02067962
0.05898478 0.03887023 -0.06701904 0.023140982 -0.035269625 0.072838925 0.044485297 -0.07189297
0.05373086 0.019344829 -0.060158234 0.07264435 -0.0041607004 -0.014255184 0.0033172627 -7.863621e-05
0.050896943 0.062915646 -0.058359098 -0.056885246 -0.03027787 0.013046 -0.028338004 -0.029650116
0.003553788 0.016873982 0.07302041 0.068301335 0.060738686 0.074327804 -0.027935602 0.027129652
-0.07253905 -0.04460809 -0.013881157 0.07130196 0.02277849 0.043067336 0.05235708 -0.07064979
0.0016612689 0.06973651 -0.035999723 0.07330061 -0.07334927 -0.031443033 0.025888026 -0.061987277
-0.026995003 -0.0432926 0.071258426 -0.028497089 0.0313117 0.06121835 0.027087783 -0.039560404
0.045485113 -0.04203578 -0.034710694 -0.06578286 0.0310417 0.04317359 0.025247784 0.038123596
-0.047427177 0.056806915 -0.03823913 -0.032408345 -0.046431776 -0.046082024 -0.005185264 0.046546817
-0.006270938 -0.046784956 -0.047838137 0.05864892 0.037176825 0.0059491117 -0.046714123 0.026085671
-0.05251054 0.024950234 0.0060956953 -0.065341525 -0.026934832 0.025161736 0.0039949273 -0.040558416
0.03247634 0.06418236 -0.013155694 0.016194554 0.027342593 -0.046113558 0.069360174 0.059202567

convblock2.0.bias f4 [20]
00000000: 0cdc 8abc 6e0a 0ebd 09a1 3a3d 8069 cf3c
00000010: 8f84 013c 5e0a eb3d 1bc3 5ebc 8307 cd3a
00000020: 0bf0 783d 4c16 793c 5ce5 83bd 6809 72bd
00000030: a17c 633d 0aff f0bc 69ba 48bd 9923 1dbd
00000040: fe67 40bd 84c9 33bd 1690 02bc b96e bd3d
-0.01695063 -0.034677915 0.04556373 0.025318861 0.00790514 0.11476587 -0.013596321 0.0015642497
0.060775798 0.01520307 -0.06440231 -0.059091 0.055538777 -0.029418487 -0.0490059 -0.038364027
-0.046974175 -0.043893352 -0.007968923 0.09249634

convblock2.2.weight f4 [20, 20, 3, 3]
00000000: 000d bc3b e458 333c ad85 223d db8b e2bc
00000010: 9c05 1a3c ac78 58ba babf 6cbc 0837 c2bc
00000020: 54af 8abd 9db0 553d 7ff9 5ebd 370b 82bd
00000030: bf5f f73c c992 883d 442c 4b3d cc96 3f3d
00000040: 6d7c 523d eebd 753d c680 133d cb41 4c3d
00000050: 2714 933d a1fc 9c3c 3b03 963a 0971 003d
00000060: 6efc 843d b9b1 96bd 4fb6 86bd d32c 60bd
00000070: 1c87 f8b9 e189 88bc 7192 1aba 8191 d33c
00000080: 9215 c0bb 0e92 233c a46d 69bd 0b9c 323d
00000090: ea86 0b3d a309 6d3d ee16 90bd b9ef 3bbd
000000a0: ba38 4ebb cf82 fdbc d606 79bb f677 6d3d
000000b0: 4b6c 61bd b202 d3bc a17d ac3c 5290 253c
000000c0: 07bb 89bd 3597 373d f9e2 29bd 3962 f73c
000000d0: 8247 943d 1ba7 be3c 01cd b8bb b850 93bd
000000e0: f525 94bd 2951 943d 0a4e 8cbc ff1c ac3a
000000f0: 6013 8ebd 639b 5e3c 8737 f7bc 5db7 89bd
00000100: 9471 c9bc 49c7 b63c 3c04 b73b 5e94 82bc
00000110: 9170 423c b64e e6bc 26a0 1a3d ddc9 c8bc
00000120: 9d5b 8fbd 090a 803d 8aa4 ce3c d802 19bd
00000130: f9ab 02bd 6d06 973b d55a 043d a46d 7cbc
00000140: 1f47 243d d748 8ebc b021 883d 9a15 85bd
00000150: 759d 84bd c54c 2d3d 5c90 623d 4cca 483c
00000160: 3b07 2e3d a80f d93c 214d 4d3d 84b2 87bd
00000170: c21e 913d fa05 93bd 8e43 4f3d db29 e7bc
00000180: ab75 023d fe0f 583d 42f9 da3c bec7 19bd
00000190: 4006 81bd 3bce 9ebc c4ad 7ebd 7fff 773d
000001a0: f2f5 203d d83c 7a3d 0c8f 9a3b 31a0 963d
000001b0: 0a38 8abc 9cf5 fc3b e776 82bd 2f57 543d
000001c0: fc03 323d 75f5 343b 06e6 0a3d cbfc f7bc
000001d0: 3d41 753d cd2c 07bd 37ac 923d f7df 923d
000001e0: 85e7 4b3d a780 d6bc 17d8 4dbd 0cc1 b83c
000001f0: af7b 093d 9c0b 79bc e341 74bd e056 763d
00000200: a34f 78bc f0af 883d 3ebc 82bb 7933 94bc
00000210: 6392 80bd 01dd 81bd 00bb 55bd e5f9 503d
00000220: 0af2 d43c d655 cb3b d2d9 083d 0504 813c
00000230: 4b18 f33b 6e46 c63c f892 cbbb 5e3b 013d
00000240: b587 37bd f7fb ee3c 7f69 ec3b 3ef1 73bc
00000250: 727e 163d 391c 92bd 76b2 833d 89ce c9bc
00000260: 4aab 8b3a d9a7 d93b db25 893c 0696 3c3d
00000270: c256 7a3d d094 a6bb ffbb 0dbd 9918 823d
00000280: 0caf 38bd b5e5 ebbc 6222 953d 032f f13c
00000290: 8f56 5bbd 74ec 383b fb00 813d e3fa 603d
000002a0: 6867 8e3d b5ae 01bd 3b4d 313d 23e6 24bd
000002b0: 84c6 5e3d e260 a1bc 9eba 12bd cbcd adbc
000002c0: 61ec 923d 5eca 60bd a763 40bd 34d5 7b3d
000002d0: f5c0 49bd af4a 353d 76e8 983d b9d9 d33b
000002e0: c92b 883d 400b 8abd 397a b33a 3c58 58bd
000002f0: 312a 033d 577a 0b3d 7c43 843c 6213 ffbb
00000300: 6888 63bd 1e2c 5fbd d724 2dbd 545a 14bb
00000310: 463f 5dbb c17e 4bbd f56c 373d c9c1 673d
00000320: 17be 703d f48a 2d3d 622b 843d 0dc2 6ebd
00000330: 9ba1 a8bb 8d96 373c 8645 d6bb a7ce 2abb
00000340: 5451 fe3b 1a89 203d 8481 903d e501 96bd
00000350: da58 633d 18bd a7bc 252b 1dbc 527d 123a
00000360: b90e 11bd 664b 393b 83a2 a8bb 1c3b 833d
00000370: 977c 803d fc05 20bc 409e c63c b979 91bc
00000380: aeb0 533d 546e 86bc c9f5 07bd 70f7 c0bb
00000390: 128e 4b3d fbef 983c a119 37bd 1161 7fbd
000003a0: c6b3 13bd 06ea f6bc 8582 123d 659d 64bd
000003b0: bc28 14bd efd0 163d 7caa 1ebd 5766 24bd
000003c0: 888d 08bd 52f4 8e3d 3c47 88bd e46e 92bd
000003d0: 3516 d03c 6b84 bc3c b6cf b3bc 5d39 a13c
000003e0: a069 7bbd 1231 833c ddd1 8f3d 3809 843d
000003f0: 5296 77bd 37b2 3c3d 762f 733c 6cd6 05bd
0.0057388544 0.010946486 0.039678264 -0.027654579 0.009400751 -0.00082577276 -0.014450008 -0.023707882
-0.067717224 0.052170385 -0.054437157 -0.06349795 0.030197022 0.06668622 0.049602762 0.04677467
0.051388193 0.059995584 0.03601148 0.049867433 0.07181578 0.019163432 0.0011445055 0.0313578
0.0649346 -0.07358117 -0.06577741 -0.054730248 -0.0004740291 -0.016667308 -0.0005896455 0.025826218
-0.0058619464 0.009983553 -0.056989327 0.043605845 0.03406421 0.05787052 -0.070356235 -0.045882914
-0.0031466917 -0.030946163 -0.003799846 0.05797573 -0.055034917 -0.025758121 0.021055998 0.010105209
-0.06725126 0.044821937 -0.041476224 0.030198203 0.072402015 0.023273041 -0.0056396727 -0.0719313
-0.07233802 0.072420426 -0.017127056 0.00131312 -0.06937289 0.013586852 -0.030177845 -0.06724427
-0.024590291 0.022311823 0.0055852216 -0.015939888 0.011867658 -0.028113704 0.037750386 -0.024510318
-0.06999896 0.06251914 0.025224943 -0.037356228 -0.031902287 0.0046089203 0.032313187 -0.015407
0.04010689 -0.017368717 0.066470504 -0.06498261 -0.06475345 0.04230954 0.055313453 0.012255263
0.042487364 0.026496723 0.050122384 -0.06625846 0.07085945 -0.07178874 0.050601535 -0.0282182
0.0318505 0.052749626 0.026730184 -0.037544005 -0.0630002 -0.019385448 -0.062177435 0.060546394
0.03929705 0.06109318 0.0047167595 0.07354773 -0.016872425 0.0077197086 -0.06370335 0.051840957
0.04346083 0.0027612124 0.033910774 -0.030271908 0.05987667 -0.03300171 0.071617536 0.07171624
0.04978134 -0.026184393 -0.050254907 0.02255299 0.03356522 -0.015200522 -0.059633147 0.060141444
-0.015155706 0.066741824 -0.0039897254 -0.01809095 -0.06277921 -0.06340981 -0.05218029 0.051019568
0.02599432 0.006205301 0.033410855 0.015748987 0.0074186674 0.024203505 -0.0062125884 0.031550758
-0.044807155 0.02917288 0.0072147246 -0.01488906 0.03674168 -0.07134289 0.06430523 -0.024634616
0.0010655907 0.0066423235 0.016741684 0.04604151 0.061117895 -0.005083658 -0.034603115 0.06352348
-0.045088813 -0.028796056 0.072819486 0.029441362 -0.053549346 0.002821711 0.06299015 0.054926764
0.06953317 -0.031660754 0.043286543 -0.040258538 0.054388538 -0.019699518 -0.035822503 -0.021216294
0.07173992 -0.054880492 -0.046970036 0.061482623 -0.049256284 0.044260677 0.074662134 0.0064651635
0.06648976 -0.06740427 0.0013693041 -0.05281852 0.03202266 0.03405222 0.01614546 -0.007784293
-0.05555001 -0.054485433 -0.04227146 -0.0022636848 -0.0033759638 -0.04968143 0.044781644 0.056581292
0.058775034 0.042368844 0.06453587 -0.05829053 -0.005146218 0.011205328 -0.0065390496 -0.0026063116
0.00776116 0.03919325 0.07055953 -0.0732458 0.055504657 -0.02047591 -0.009592806 0.0005588132
-0.03541443 0.00282737 -0.005146326 0.064077586 0.062737636 -0.009767052 0.024245381 -0.017758237
0.051682167 -0.01641003 -0.033193383 -0.005888872 0.049696036 0.01866912 -0.044702176 -0.06234843
-0.036060117 -0.030140888 0.035769004 -0.055814166 -0.03617166 0.03682035 -0.038736805 -0.04013666
-0.0333381 0.06980194 -0.06654212 -0.07150057 0.025401214 0.02301236 -0.02194963 0.019680673
-0.06138003 0.01601461 0.0702245 0.06447071 -0.06044609 0.046068396 0.014842859 -0.03267519

convblock2.2.bias f4 [20]
00000000: 9cdb 5a3d 5801 47bc a9b4 f8bc 9388 46bd
00000010: 305c 693d fba6 a13b 25b8 1e3d 0f9b a73c
00000020: f7a6 893d 8acd 0fbc edbe 7cbc 3825 07bd
00000030: 4c91 ba3d 4011 35bd d6c6 99bd 2757 22bd
00000040: 2bf0 d03c 9454 2a3d 7644 523d ccdc 523d
0.053432092 -0.0121463165 -0.030359583 -0.04847009 0.056972682 0.0049332357 0.038749833 0.02045968
0.06721299 -0.008777032 -0.01542638 -0.03299448 0.091097444 -0.044205904 -0.07508628 -0.039633896
0.025505146 0.041584566 0.05133482 0.0514801

classifier.1.weight f4 [3, 3380]
00000000: 7a33 a6bb 0296 3a3b 82cd 8dbb 76ff 8a3a
00000010: 1651 123c 28ce 40bc 64b2 2c3c 370b 5ebc
00000020: f820 1c3c 71fa 42bc d998 913a be89 2b3c
00000030: 770e ad3a cb44 4bbc f594 63bc 4b12 73bc
00000040: 6cae ec3b 8b33 82bc 6543 823a b85b e43b
00000050: e392 c2ba 8860 39bc 03b2 6b3b 6b63 ab3b
00000060: b436 543c 02d4 99bb 2310 493c 9306 643c
00000070: fc2f 763c a12b 78ba 3641 5dbc 0e9a 113a
00000080: aca9 4bbc 2008 cb3b 6516 203c 5b93 683c
00000090: dcb3 e23b a2fd d8bb ff3e 4abb 4cfc 8cbb
000000a0: 9c1c 82bc 5540 c83b 318f 263c b6c7 55bc
000000b0: a2c0 84bb a0a0 0b3c 2c5e 92bb e937 67bc
000000c0: 9568 7fbc 6df7 efbb 1778 783c 86ea 343c
000000d0: f502 62bc 059d 85bc 8140 233b 8e60 4bbc
000000e0: d5e5 67bb 1f8d 353a e297 bf3b f825 533c
000000f0: c08a a8bc d405 9b3a 8c47 94bb 46e6 2c3b
00000100: 3e5c 5dbb 0fd3 cdbb 1b2c 67bc 8faa 5f3a
00000110: 448a 01bc c67a debb 1d0c d73b 10bf 7abc
00000120: 1a58 8fbc ee90 80bc a72f d0ba dc19 f53b
00000130: 56f5 6d3b f760 573b caea 9abc a400 13bc
00000140: 46ed 343c 90b8 31bc 132f fabb bc68 4e3c
00000150: b147 a2bc dc3f 4cbc 7436 563c afcd d23b
00000160: 423a 063a 4fae 8fbb de73 14bb 61ef 713c
00000170: 0694 4fbb 42d4 723b c685 97bc dd81 1ebc
00000180: 9241 b03a b53d 87bc b558 a3bb 30c6 613c
00000190: f08e 40bc 35d3 2f3b e6aa 73bc a86f 63bc
000001a0: ef6d 66bc cc69 773b ed4a 04ba 2da0 8fbc
000001b0: 9371 91bc 1125 66bc e35a 8cbc e33f bfbb
000001c0: 2a68 373b 2f38 293c ca34 8b3b 87d0 803b
000001d0: 2002 41bc f30c 85bc 55f6 4abc 2e8d 4a3c
000001e0: 6e6f 91ba 3ac7 c23b 1729 4ebc 6574 66bc
000001f0: a849 65bc 182d adbb e569 1f3c fc99 8dbc
00000200: 1faa 133c b173 e53b 26a7 ae3b 15f6 fabb
00000210: 4759 67bc 832a 31bc 701f 0abc c2e0 39bc
00000220: 7e8e 82bb 5c6f f13a 2faa 5d3a 91b9 b83b
00000230: 4f3b d5bb d325 533b b8d6 12bc b150 833b
00000240: 993c 2c3b 5dc6 08bc 7c66 47ba 47eb 193c
00000250: 3b26 843c 551d 83bc 2de1 dabb fb6f 863b
00000260: 4a67 373c 8f50 713c 8939 fcbb 800e 31bc
00000270: 6cbd 1e3a f9d4 73bc eb85 dbb9 15fc 623b
00000280: a9bc 7f3c 720c 663c efee 783c 62dc 0dbc
00000290: 33a5 4fbc e200 3a3c be49 883c b8d2 8638
000002a0: 7f5d 0cbc 1f1b 82bb 72b4 debb 5a1c 803c
000002b0: b120 823c 1618 52bc 8f48 41bb 5d4b 0d3c
000002c0: 6448 793c d282 f63a 1c20 123b 45c2 863c
000002d0: 1d1f 943c 572e ff3b ec38 443c 066d 913c
000002e0: 9295 a43b e758 4fbc d9f6 1ebc 58d1 273c
000002f0: 628f 8bbc 16d4 61bc b091 2ebc 11df 1f3b
00000300: 81a1 c6bb d0ee 21bc e723 87ba c769 373c
00000310: 5dcd 1f3c dc8d 10bb 4c04 96bb 12f6 413c
00000320: 141b 803c 13f3 2f3c 224f 2e3c a8d0 6e3a
00000330: 22dd d8bb 628f ef38 0f4e 00bb 1129 d1bb
00000340: 1a85 fc3a af1e 37bc 89ec d7bb b0e2 4b3b
00000350: a787 4b3c a57b 843c 77a5 b73b 85de 39bc
00000360: 4605 943a 33ba 763c a600 7c3c 8223 1bbc
00000370: b885 04bc 6039 703b 41a6 65bb 07e1 103b
00000380: 97ae 9cb9 f195 e73b 4124 4b3c b171 b33b
00000390: dd01 75b9 6386 093c 1a03 a5bb 573e dfbb
000003a0: fb92 863c 1e26 c2bb e361 90ba b3b0 4e3c
000003b0: dcae 91bb 6f2d 52bc 5880 09bc 965c 4cba
000003c0: deb4 11bc 764d e63a 8167 7dbc 666f 22bc
000003d0: 044a d13b e04c 4d3c 2691 cd3b 664f 093c
000003e0: 58b8 563c 2554 8c3b 3c65 ee39 f43b 363c
000003f0: b944 343c 9b33 e6ba 1427 26bc cc96 57bc
-0.0050720545 0.002847076 -0.004327477 0.0010604698 0.008930465 -0.0117679015 0.0105405785 -0.0135524785
0.009529345 -0.01190053 0.0011108174 0.010469852 0.0013203163 -0.012406538 -0.013890495 -0.014835904
0.007222941 -0.015893718 0.0009938298 0.0069689415 -0.0014844801 -0.011314519 0.0035964258 0.0052303574
0.012952495 -0.0046944628 0.012271914 0.013917583 0.015026089 -0.00094669504 -0.013504317 0.0005554267
-0.01243059 0.006196037 0.009770964 0.0141952885 0.0069184136 -0.0066220323 -0.0030860303 -0.004302537
-0.015882783 0.0061111846 0.010165975 -0.013048103 -0.004051284 0.008522183 -0.0044667926 -0.014112451
-0.015588899 -0.0073231966 0.01516535 0.011042243 -0.01379465 -0.016310224 0.0024910273 -0.012413157
-0.0035384793 0.0006925631 0.0058469633 0.01288747 -0.020573974 0.0011827298 -0.0045251306 0.002638237
-0.0033776904 -0.0062812637 -0.014109637 0.000853219 -0.0079065 -0.006789538 0.0065627233 -0.015304342
-0.017498065 -0.015694108 -0.0015883342 0.0074798893 0.0036309562 0.0032864192 -0.018910784 -0.008972321
0.0110428985 -0.010847226 -0.007635006 0.012598213 -0.019809576 -0.012466397 0.013074506 0.006433211
0.00051203754 -0.004384793 -0.002265207 0.014766545 -0.0031673922 0.0037052785 -0.018496405 -0.0096745165
0.0013447276 -0.016508916 -0.00498494 0.013780162 -0.011752829 0.002682877 -0.014872288 -0.013881601
-0.014064296 0.003775227 -0.0005046565 -0.017532432 -0.017754352 -0.014046923 -0.017133182 -0.0058364733
0.002798567 0.010328337 0.0042482363 0.0039311084 -0.011780292 -0.016241526 -0.012387832 0.012362761
-0.0011095831 0.00594416 -0.012583039 -0.014065837 -0.013994612 -0.0052849166 0.009729837 -0.01728534
0.009012728 0.007002317 0.0053299842 -0.00765873 -0.0141204065 -0.010813358 -0.008430347 -0.01134509
-0.0039842715 0.0018420029 0.000845584 0.0056373556 -0.0065073143 0.003221859 -0.008962326 0.004007422
0.0026281236 -0.008348075 -0.0007606519 0.009394473 0.016131511 -0.016005198 -0.006679675 0.0041027046
0.01119406 0.014728679 -0.0076972884 -0.01080668 0.0006055448 -0.01488232 -0.00041870712 0.0034635116
0.015608945 0.014041053 0.015193685 -0.0086585 -0.012673664 0.01135275 0.016636726 6.428867e-05
-0.008567213 -0.0039705182 -0.006796413 0.01563852 0.01588473 -0.012823125 -0.0029492711 0.008623925
0.015215013 0.0018807298 0.002229697 0.016450057 0.018081242 0.0077875066 0.011976462 0.017752182
0.005022713 -0.012655473 -0.009702408 0.0102427825 -0.017036144 -0.013783475 -0.010654852 0.0024394433
-0.0060617332 -0.0098835975 -0.0010310382 0.011194653 0.009753552 -0.002205721 -0.004578149 0.011838453
0.015637912 0.010739106 0.010638984 0.00091100717 -0.006618158 0.00011423115 -0.0019577777 -0.0063830693
0.0019265742 -0.011176749 -0.0065894765 0.0031110458 0.012422479 0.01617224 0.0056044417 -0.011344557
0.0011293076 0.015059042 0.015381014 -0.009468915 -0.008088522 0.0036655292 -0.0035041722 0.0022106783
-0.00029884718 0.007067435 0.01239878 0.0054761996 -0.00023365715 0.008393857 -0.00503577 -0.0068128514
0.016427508 -0.005924954 -0.0011015501 0.012615371 -0.0044458937 -0.012828215 -0.008392416 -0.0007795779
-0.00889322 0.0017570693 -0.015466572 -0.009914255 0.006386997 0.012530535 0.0062734066 0.0083807465
0.013105474 0.0042824917 0.00045470323 0.011122692 0.011002713 -0.0017562987 -0.010141153 -0.013158511

classifier.1.bias f4 [3]
00000000: b967 a6bc cd91 333d e9f8 90bc
-0.02031313 0.04384022 -0.017696815
