06-Modular/exercise/exercise_model/TinyVGG.pth (torch, 36152 bytes, 10 tensors)

convblock1.0.weight f4 [10, 3, 3, 3]
000000 e4 05 61 3d bc 73 31 3d ca 9e b6 bd 91 13 d8 3c
       0.05493726 0.043323264 -0.08917005 0.026376517
000010 66 86 a4 bd e6 2a c9 bc 6a 43 1c bc b9 85 a3 3d
       -0.08033447 -0.024556588 -0.009537557 0.0798449
000020 78 b4 07 be 5c c3 05 be 18 1c d0 3d 0f 5d 44 bd
       -0.13252437 -0.13062805 0.101616085 -0.04794031
000030 2e 79 b5 3c cc 51 29 be 1a d2 33 be 39 2d 9f bd
       0.02215251 -0.1653511 -0.17560616 -0.077722974
000040 6e 4f 41 3d 33 b2 cd 3c 1c 47 b0 bd b0 8e 2a 3e
       0.04719489 0.025109386 -0.08607313 0.16655993
000050 f6 bc d6 bd d8 4a fa 3b 2b 44 2b 3d 45 1b fc bd
       -0.1048526 0.0076383166 0.041813057 -0.12309889
000060 78 05 20 be 45 cc 12 be a3 d1 25 be 04 8e 26 3e
       -0.15627086 -0.14335735 -0.16193251 0.16265112
000070 b3 6a 27 be 5a fb 1a be 00 5f 30 3e 54 12 12 3d
       -0.16349296 -0.15134946 0.1722374 0.03566201
000080 5f 04 13 3e e3 d9 5b 3d 3b 36 30 be 3a 54 25 be
       0.14357136 0.05367459 -0.17208187 -0.16145411
000090 ad aa f9 bc 95 a1 b5 3d d6 ed a0 bd e4 15 f4 3d
       -0.030476892 0.0886871 -0.078578636 0.11918238
0000a0 02 13 65 3d 30 9b a0 3d d3 e0 a3 3d 1d aa 23 3e
       0.05592633 0.078421 0.08001866 0.15982862
0000b0 61 be b0 bc b3 b0 54 3c 4d 4c fd 3d e0 92 3e be
       -0.021575155 0.0129815815 0.12368069 -0.18610716
0000c0 c5 80 3e bc 77 17 0f bc a5 74 a2 bc c6 31 1e be
       -0.011627381 -0.008733622 -0.019831011 -0.15448675
0000d0 f9 84 2e be 9b d3 de bd 15 cd 09 bd a1 47 c2 3d
       -0.17042913 -0.10880204 -0.033642847 0.094863184
0000e0 fd 5a a2 3d 98 15 44 be be 3e 67 bd bf e2 10 3e
       0.07927511 -0.19148862 -0.05645632 0.14148997
0000f0 9d a1 30 bd 43 a8 47 3d 2e 22 da 3d d8 0e 37 be
       -0.043122876 0.04874445 0.106510505 -0.17876756
000100 8c 4d 0e be d0 23 db 3b ba 53 9f 3d d0 7a 2f bd
       -0.1389677 0.006687619 0.077796414 -0.042841733
000110 a8 9a 39 3e ea 18 f2 bd c8 d2 e4 bd 9d 97 1c 3e
       0.18125403 -0.11821158 -0.11173016 0.15292211
000120 04 98 85 bd 35 d5 2d be 7d 8f 06 3d a5 a3 4e bd
       -0.06523135 -0.16975863 0.032851685 -0.050449032
000130 32 dc 31 bc 75 b8 ef 3d 23 e8 38 be 66 93 01 3d
       -0.010855721 0.11705104 -0.18057303 0.03163471
000140 5f b8 58 3d f1 a8 d0 3d 94 79 0b 3e 09 3b 25 3e
       0.052910205 0.10188473 0.13620597 0.16135801
000150 27 e2 43 3e 38 a9 29 3e 4d 0a b1 bd 47 a1 31 3e
       0.19129239 0.16568458 -0.08644543 0.17346679
000160 48 a4 04 3e 90 6b 05 be c4 f8 b2 bd 00 ef 32 be
       0.12953293 -0.13029313 -0.087388545 -0.17473984
000170 00 39 41 be d6 27 fa 3d 16 5b 5c 3d 2d f9 39 be
       -0.188694 0.12214629 0.053797804 -0.1816146
000180 7e e2 68 bd 17 d4 3b 3e 23 68 0c be a1 3a 15 be
       -0.056856625 0.18342625 -0.137116 -0.14573146
000190 a3 f4 82 bd 7c 1f 2d be dd 50 78 bd 58 2a dc bd
       -0.06394317 -0.16906542 -0.060623992 -0.10750264
0001a0 67 f8 bf 3d fd ec 0c 3e da 61 37 be 7b ff 2d 3e
       0.09373551 0.13762279 -0.17908421 0.1699199
0001b0 72 b3 f8 bd b6 cf fd bd f7 8f 85 3d 2f 38 6b 3c
       -0.121436015 -0.12393133 0.065216 0.014356657
0001c0 77 9e 9f bd 72 d0 b2 bd 36 bf a4 bd 62 66 14 3e
       -0.07793897 -0.08731164 -0.08044283 0.14492181
0001d0 b3 2e e4 3d 58 3f 15 be 97 3e 32 be 58 01 8f bd
       0.1114172 -0.14574945 -0.17406689 -0.06982678
0001e0 94 05 1d be a0 60 40 be a4 32 12 be 7e 55 a0 bc
       -0.15334159 -0.1878686 -0.1427713 -0.019572016
0001f0 1d 69 09 bc 3a 5f d8 bd 65 d7 38 bc 69 4f a4 bb
       -0.008386877 -0.10565038 -0.011281823 -0.0050143492
000200 c0 a2 5f bd 3a 16 0c 3e c9 ee f1 3c 21 c1 c9 bd
       -0.05459857 0.13680354 0.029532807 -0.098512895
000210 7f 29 08 3e 85 5f 3b be 49 c6 22 3e b9 62 21 be
       0.1329708 -0.18298157 0.15895952 -0.15760316
000220 50 4a 44 bd 00 7e 31 bd 90 2a 77 bd 8b 6c 0d 3e
       -0.047922432 -0.043333054 -0.060343325 0.13810937
000230 b0 68 18 bd a7 31 1e be 7a 84 b8 bd d4 ba 10 be
       -0.037209213 -0.15448628 -0.09009643 -0.1413377
000240 7a 8f b6 3d c0 89 00 be 8c 49 25 bd 85 72 07 be
       0.08914085 -0.12552547 -0.040353343 -0.1322728
000250 ef ef 05 3e b8 18 6a 3d 6e 49 fe 3d 30 fc 28 bd
       0.13079809 0.05715248 0.12416349 -0.04125613
000260 78 9c 5b bd 3a 0a f7 3d 4e d0 9d 3d 0a e9 e0 bd
       -0.053616017 0.120624974 0.077057466 -0.10981949
000270 b6 65 1f be c0 45 88 3c 04 17 75 bd e0 6e 3e be
       -0.15566143 0.016634822 -0.059836403 -0.18596983
000280 6e 53 30 be e8 05 0a 3d 5d b2 59 bd 5a 46 2f be
       -0.17219326 0.03369704 -0.053148616 -0.1711668
000290 98 d5 1d 3e 2b 1a 11 3d ac 62 01 be d9 05 16 be
       0.15413511 0.035425346 -0.12635297 -0.14650668
0002a0 b7 5d 24 3e bc 6e bd 3b 42 e9 2f be 80 22 08 be
       0.16051374 0.005781023 -0.17178825 -0.1329441
0002b0 cf 44 88 3d b9 06 20 3c a3 55 62 bd 59 aa 75 bd
       0.06653749 0.009767228 -0.05525745 -0.05997691
0002c0 ca a2 83 3d ea 44 b5 bd c4 8a d4 bc 69 31 21 3d
       0.06427534 -0.08851035 -0.025945075 0.03935376
0002d0 0e 82 f9 bc fe a4 06 bb b0 21 f7 bd ec 97 8c bd
       -0.030457523 -0.002054512 -0.12066972 -0.06864914
0002e0 65 50 c2 3d e6 f9 bb 3d 0e f4 17 3d 67 7f 1d 3e
       0.0948799 0.09178524 0.037097983 0.15380631
0002f0 bc c1 18 be 43 d3 2c 3c 24 de bd bd 7e bd 1a 3d
       -0.14917654 0.010548416 -0.092708856 0.03777837
000300 a4 e8 9d bd d0 52 ea 3d c5 a1 04 bd 8d 9f 0f 3d
       -0.07710388 0.114415765 -0.032380838 0.03506427
000310 ec 18 28 be 9e 43 2a be 4c af 9a 3d 49 9b 37 3d
       -0.16415757 -0.16627356 0.075529665 0.044825826
000320 46 0b 15 be da dc a4 3d fc a6 75 3c ec 29 b2 3d
       -0.14555082 0.080499366 0.014993425 0.08699402
000330 50 e2 06 3e 86 35 7d 3d 4d 22 25 be b0 b7 24 bd
       0.13172269 0.061818622 -0.16126366 -0.04021424
000340 a6 4e 21 be 4a 27 b2 3c c0 b4 4a bd 84 99 ca bd
       -0.15752658 0.02174725 -0.049488783 -0.09892562
000350 98 4a ad bd 8b a2 2d 3d 2d 34 e7 3d da b7 8f bd
       -0.08461493 0.04239134 0.112892486 -0.07017489
000360 b9 d7 2a be 18 c5 0b 3e 79 a5 ae bd e9 70 37 be
       -0.16683854 0.13649404 -0.08527655 -0.17914166
000370 57 21 c5 3d 72 d4 97 3c bd aa 9d bd f5 51 19 be
       0.096255 0.018533919 -0.07698581 -0.1497267
000380 6e d0 b4 3d 8b 84 2b be 5b 08 98 bc 85 99 ab 3d
       0.08828817 -0.1674978 -0.018558672 0.08378891
000390 24 86 08 be 3c 0f 20 3d d3 69 f3 3d 66 57 80 3d
       -0.1333242 0.03907703 0.11885419 0.0626667
0003a0 94 50 1b 3d b8 6c 05 be 2c 49 8d 3c 56 26 01 be
       0.037918642 -0.13029754 0.017246805 -0.1261228
0003b0 7a 4b 25 3e f9 34 1c be 51 96 fe 3d b4 a3 1e 3d
       0.16142073 -0.15254582 0.12431014 0.03873034
0003c0 a3 5d 88 3d 08 ee 20 3e 20 90 74 3d 9f 86 ae bd
       0.06658485 0.15715802 0.05970776 -0.08521771
0003d0 e0 1f 1f bd 8d f3 3c 3e a2 c8 ec 3d 92 47 ef 3d
       -0.038848758 0.18452282 0.11561705 0.11683573
0003e0 d9 e9 53 bd 51 3d 0f 3e 8f 67 c9 3d 8c a8 1d 3e
       -0.051736686 0.13988234 0.09834205 0.15396327
0003f0 45 82 16 3e 80 df 3b 3d 83 f9 d8 3d 56 7c 1b be
       0.14698131 0.045867443 0.105944656 -0.15184149

convblock1.0.bias f4 [10]
000000 93 ce 0f 3e 65 28 21 3e e2 ad 3d be 4c de 75 bd
       0.14043646 0.15738066 -0.18523362 -0.060026452
000010 ac 8c 21 3e 20 ea 4c bd 16 40 50 3d 23 fe b6 3d
       0.15776318 -0.050027966 0.050842367 0.089351915
000020 0b 7f 3d be 02 ce 41 bc
       -0.18505494 -0.011828901

convblock1.2.weight f4 [10, 10, 3, 3]
000000 4a 4d a4 bd dc 16 38 3c b2 5e a1 3d 95 d4 46 3d
       -0.08022554 0.011235919 0.0787939 0.048542578
000010 13 69 3a 3d bb dc ac bd 90 91 38 bd 98 f3 67 3d
       0.045510363 -0.084405385 -0.045060694 0.056628793
000020 fc e4 27 bc 12 c2 a7 bb 18 d1 94 bc c8 68 e2 3c
       -0.010247465 -0.0051195705 -0.01816611 0.027637854
000030 25 1c bf bd 2f 4a 99 bd 1e ef 9f bd bf fa 39 bd
       -0.0933154 -0.074848525 -0.0780928 -0.045405146
000040 fa 96 38 b9 98 26 13 bd bc 45 b4 bd 68 8e 8a 3d
       -0.0001760385 -0.035925478 -0.08802363 0.06765443
000050 f5 38 fc bb 26 15 b4 3c c6 e5 a0 bd 31 0a 99 bd
       -0.0076972195 0.02198274 -0.07856326 -0.07472647
000060 7b 26 23 3d 64 24 1f bd 0a fa b6 bc 56 96 cc 3d
       0.03983162 -0.038853064 -0.022336025 0.09989612
000070 48 89 06 3c 0f bf 44 bc c7 fe b3 3d ce 25 ed 3a
       0.008211441 -0.012008443 0.08788829 0.0018092932
000080 a7 c6 a4 3d 7e bf 72 3c d1 b4 d8 bc 46 3e ce bc
       0.080457024 0.014816163 -0.026453407 -0.025176179
000090 cd 8d 98 bd aa 12 d5 bd 43 ba 7b 3c 93 44 ff bc
       -0.07448921 -0.104039505 0.0153642325 -0.031160628
0000a0 3c 78 a7 3d 86 1d ea 3c c8 43 bd 3d 89 a2 80 bc
       0.0817723 0.028578531 0.09241444 -0.015702503
0000b0 78 cc dc 3a c0 74 1d 3b 4a 24 14 3d b0 51 05 bd
       0.0016845604 0.0024025887 0.03616742 -0.032548606
0000c0 4c fc 97 3c a1 60 83 bd 83 1e 98 3d bc 17 c3 3c
       0.018552922 -0.06414915 0.07427695 0.023815028
0000d0 2d 99 a6 3d 9f 66 9a bd d2 58 6f 3c 5c 25 c0 bc
       0.08134685 -0.07539105 0.014608579 -0.023455314
0000e0 de a1 dd bc 56 69 40 3d 9a 13 ca 3c 37 f6 21 3c
       -0.027054723 0.046975456 0.02466755 0.009885362
0000f0 bb e0 66 3d 3e 79 35 bc d7 8f a9 bd a6 d0 d5 3d
       0.056366663 -0.01107627 -0.082793884 0.10440187
000100 d7 d4 ae 3c 61 d9 7f bd cb 1e ab bc 8e 99 84 ba
       0.021341724 -0.062463168 -0.020888707 -0.0010116564
000110 07 e5 d0 bd 82 cd 53 3c d1 5b 8d bd da 57 80 bd
       -0.101999335 0.012927415 -0.06902278 -0.06266756
000120 ff f9 a9 bd 37 ed cf bd ac 1e 1e 3c 46 10 19 3a
       -0.08299636 -0.10152667 0.009650867 0.0005838912
000130 d7 b2 5c bd b2 a1 2b bd 3c af e1 3c fb 9a 28 bd
       -0.053881492 -0.04190225 0.027549379 -0.041163426
000140 c8 6c c2 3d eb fb a8 bd fa f9 a2 3c 2a b8 a0 3d
       0.094934046 -0.082511745 0.019894589 0.078476265
000150 38 d2 c6 bd 89 b7 35 3c 20 77 cc 3c f6 7c bd 3d
       -0.09708065 0.0110911215 0.024959147 0.0925235
000160 1c fb ba 3d f2 85 b5 3d 02 27 ab bc 67 7e 35 bd
       0.091299266 0.08863439 -0.020892624 -0.04431
000170 a4 c7 c6 bd 64 c0 9b 3d 83 f8 33 bd 84 b2 a7 3d
       -0.09706047 0.07605055 -0.04393817 0.08188346
000180 83 91 62 3d 9c d4 a2 bd 79 c4 00 3d f5 8f 5e 3d
       0.055314552 -0.07950708 0.03143737 0.054336507
000190 75 4d 00 bb 9b d7 37 bd 9b ae 6c bd fd a9 72 bc
       -0.0019577418 -0.04488335 -0.057783704 -0.014811036
0001a0 af 16 8b 3d 59 72 84 3d c2 21 49 bc fe 3a 15 3a
       0.06791436 0.064671226 -0.012276115 0.00056926894
0001b0 1a 79 71 3c dd d1 87 bd db 24 4f 3c f0 41 d4 3d
       0.0147383455 -0.06631825 0.012643064 0.10364139
0001c0 5e fc b4 bd c8 01 26 3d ab cc 9e bd 1c b0 5f bd
       -0.08837198 0.040529042 -0.07753881 -0.05461131
0001d0 b9 b9 00 bc 49 46 77 bd c6 32 ce bc ac 6d de bc
       -0.00785678 -0.060369764 -0.025170695 -0.027151905
0001e0 15 1d 7f 3d ab 51 c0 bd c8 75 4b bd f6 20 a6 3d
       0.062283594 -0.09390577 -0.04967287 0.081117555
0001f0 cc 36 3a bd 0f 94 88 bd 18 dc 58 bd 3b 92 cb bc
       -0.045462415 -0.06668865 -0.052944273 -0.024850002
000200 24 3c d3 bc cc 17 c9 3d 00 64 65 3d c3 be 3e 3d
       -0.025785513 0.09818992 0.05600357 0.046568643
000210 d5 fb 07 bb 2e 08 4d bd 89 98 cd 3d fd 71 93 3d
       -0.0020749469 -0.05005663 0.100388594 0.07199476
000220 ba 33 9d bd 82 d8 7f 3d 1d 45 c8 3d ac 4b e7 bc
       -0.07675882 0.062462337 0.09778807 -0.028234325
000230 24 61 cc 3c 39 86 c7 bd 74 e6 ee 3c df 23 65 bd
       0.024948664 -0.09742398 0.029162623 -0.055942412
000240 fe 9e 9d bc 3c 17 18 3d d4 af 01 bd 41 c2 80 bd
       -0.019240852 0.037131533 -0.031661823 -0.06287051
000250 db 1a 38 bd 28 80 f3 3c d4 ad 01 3c e7 fc ad 3d
       -0.044947486 0.029724196 0.007914979 0.08495503
000260 94 43 14 3d 01 a5 43 3c ee 73 cc 3d 02 7a d7 3d
       0.03619726 0.011941195 0.09983049 0.10521318
000270 1b bd e3 ba 36 36 ce 3d 16 e1 27 bd bf ca ce bd
       -0.0017375083 0.10068934 -0.040986143 -0.100972645
000280 8a 37 d1 bd 28 41 e9 3c e9 79 bd bd 1f c8 99 bd
       -0.10215671 0.028473452 -0.09251768 -0.07508873
000290 b1 7f 63 3c 8d 35 b2 3d b4 17 c3 bc b3 95 15 3d
       0.0138854245 0.0870162 -0.023815013 0.036519717
0002a0 6e a5 bf 3d f0 9d c3 3d ff f7 56 bd fc a5 41 bd
       0.09357725 0.095516086 -0.0524826 -0.047277436
0002b0 12 1b c9 3d ee 5a b3 bd 93 74 88 bd 34 39 cc bc
       0.098196164 -0.08757578 -0.0666286 -0.02492962
0002c0 c2 8d 90 bd ee 1b a4 3d 0c 3c cf 3b fd 47 95 bc
       -0.07058288 0.0801314 0.006324297 -0.018222803
0002d0 03 1f c4 3b e5 5f 4c 3c 55 de a4 bd 39 f6 d0 bd
       0.005985142 0.012474035 -0.08050219 -0.10203213
0002e0 1a df 87 bd b0 a5 c9 bd 7c ed 3d bc fb af af bd
       -0.0663435 -0.098460555 -0.011592265 -0.085784875
0002f0 70 3b f6 bc 39 0f 13 3d e6 17 cf 3c 44 07 af bd
       -0.030057639 0.03590319 0.02527995 -0.08546308
000300 e5 e9 11 bd 73 d1 27 3d 77 44 cd 3d fb f6 3f bd
       -0.03562345 0.04097123 0.10022824 -0.0468664
000310 02 2e d0 3c 27 df 97 3d 4d 2a b0 3d 4e 32 9a bc
       0.025412563 0.0741561 0.08601818 -0.018822815
000320 85 a3 76 bd 4b 88 c0 3d 42 6d 0e bd 83 8f 38 bb
       -0.060214538 0.09400996 -0.034772165 -0.0028161712
000330 d5 79 94 bd ce aa 40 3d 89 79 ab bb bf 12 c9 bd
       -0.072498 0.047037892 -0.005232994 -0.09818029
000340 d1 bc 01 3d ea ca 3e bd 8f ad 97 bd 29 4f 9d bd
       0.03167421 -0.046580233 -0.074061505 -0.07681114
000350 d0 6d 50 bd f4 72 e0 bc 83 fc 12 3d 19 8b 2d bd
       -0.050885975 -0.027398564 0.035885345 -0.042368982
000360 6c c6 8f bd ae 5a a1 3d 82 af b1 bd aa 9b f8 bc
       -0.07020268 0.07878624 -0.086760536 -0.030347664
000370 37 c7 ae 3d 98 85 b4 bd d6 ba 96 bd c4 6d b8 bd
       0.08534091 -0.088145435 -0.07359855 -0.09005311
000380 ea a8 bd 3d 8e 40 c5 bd 46 f4 89 bd b0 2e 55 bc
       0.092607334 -0.096314535 -0.067360446 -0.013011619
000390 39 2a 89 3d d4 08 b5 3c 90 06 d0 3b 3f 36 d3 bd
       0.066975065 0.022098936 0.0063484386 -0.10313081
0003a0 07 4c bc bd 74 e7 ff 3c 5a b2 00 3d 3a 24 b8 bd
       -0.091941886 0.031238295 0.03142009 -0.08991285
0003b0 13 1c 8e bd ae 96 b1 3d fe ac fc bc f9 de 0f bc
       -0.069389485 0.08671318 -0.030844208 -0.008781188
0003c0 98 bd ae 3c 8e af 0e bd 9a 77 8f 3d b5 c1 69 3d
       0.02133064 -0.03483539 0.07005234 0.0570695
0003d0 fb c1 46 bd bc 33 06 3d 39 09 27 3d 2e a2 69 3d
       -0.048524838 0.03276418 0.04078028 0.057039432
0003e0 2b 5d 34 bd 37 8c 45 bd 9a 60 0c 3c 8c 65 99 bd
       -0.044034164 -0.048229422 0.0085679535 -0.07490072
0003f0 5a ae 06 bd 4a ba 24 bc e0 08 3d 3d 3e b1 c3 3b
       -0.03288112 -0.01005418 0.046151042 0.0059720566

convblock1.2.bias f4 [10]
000000 3b 07 9c 3d 49 fe 5f 3d bf 41 77 bd ad 73 b4 3d
       0.076185666 0.054685865 -0.060365435 0.08811126
000010 77 de cc bd 64 a4 b1 bd 79 f0 d0 3d 36 69 c7 3d
       -0.10003369 -0.08673933 0.102021165 0.09736864
000020 5c bc a5 bd fa a9 3e bd
       -0.08092567 -0.04654882

convblock2.0.weight f4 [10, 10, 3, 3]
000000 33 0f a2 3d f8 4f a2 3c ce ce bc bd 62 6c 05 bd
       0.07913055 0.019813523 -0.09219132 -0.032574065
000010 01 89 18 3b 8a 61 17 3d e3 3d 21 bd 77 2b ed 3a
       0.002327502 0.036958255 -0.03936566 0.0018094619
000020 a5 24 0f bc d5 00 05 3d 9d 6d 53 bc 5d 88 71 3d
       -0.008736764 0.032471497 -0.012904552 0.058967937
000030 47 19 8f bd 63 11 8f bd e8 9f 0f bc 8d 0e e8 3c
       -0.06987243 -0.06985738 -0.008766152 0.02832725
000040 b4 4e a5 bd fb 85 42 bd be ac 1f 3d 56 16 bf bd
       -0.08071652 -0.047491055 0.0389831 -0.09330432
000050 86 5d 18 3d 7f b1 88 bd 4e 98 a1 3d 68 0a bc bd
       0.037198566 -0.0667448 0.07890378 -0.09181672
000060 ca 2b 01 3d a1 a6 20 bd b0 37 41 bd 0d 9f ef 3c
       0.0315359 -0.03922141 -0.04717225 0.029250646
000070 87 1a ad 3d 78 6d 0d 3d 40 89 c0 3c 1c 76 41 3d
       0.08452325 0.034528226 0.023502946 0.04723178
000080 33 93 91 3d 65 f8 83 3c 35 72 0b 3d 2f 41 c7 3c
       0.07108154 0.016109655 0.034044463 0.024323074
000090 e3 c3 c7 3d 9a b4 51 bc 65 cd b9 3d 9e b0 8f bd
       0.09754159 -0.012799406 0.09072379 -0.07016109
0000a0 73 58 b4 3d a1 c6 d6 3d 88 7b 2b bd c8 e9 fd 3c
       0.08805933 0.10487104 -0.041865855 0.030995265
0000b0 67 2e b9 bd 5c 6c b2 bd b2 ad 77 bd 66 f1 b7 bd
       -0.09042054 -0.08712074 -0.060468383 -0.0898159
0000c0 40 17 0d 3d aa fb df bc 42 93 95 3c f6 03 6c bd
       0.034446 -0.027341682 0.018258695 -0.057620965
0000d0 bd 87 5f bd 0a 97 90 3c 1b dc bc bc 17 ae 59 3c
       -0.05457281 0.017650146 -0.023054173 0.013286135
0000e0 0c bb 7d bd ad c4 7a 3c 4a e1 90 bc 3d 0a 14 bd
       -0.06194596 0.01530568 -0.017685551 -0.036142576
0000f0 c1 97 28 3d 5e 3d 50 3d bc 76 95 3d 07 ca ac bd
       0.04116035 0.050839774 0.072980374 -0.08436971
000100 a1 c0 92 bd b8 a5 8c bd d7 7c c0 bd 6f f6 9b bc
       -0.07165647 -0.06867546 -0.09398811 -0.019038407
000110 e0 eb a5 3d 6a 01 d0 3d 14 c1 f7 3c 7a b0 a2 bd
       0.0810163 0.1015652 0.030243434 -0.079438165
000120 e1 71 bc bd dd c6 09 bd 9c f6 7d bd 4b 46 33 3b
       -0.09201408 -0.033636916 -0.062002763 0.002735513
000130 21 72 fe ba 76 3b 51 bd f5 78 09 3c 83 ca ef 3c
       -0.0019412675 -0.051082097 0.008390655 0.02927137
000140 b3 4a 8f bd 06 ad 09 3d 31 c9 ce 3d 8b c7 c1 bd
       -0.069966696 0.033612274 0.10096968 -0.09461888
000150 6a 02 b6 3b f4 c4 ce 3d 54 40 8f bd 2c fe 4d bd
       0.005554487 0.100961596 -0.069946915 -0.050291225
000160 fb 2d 98 bd 14 c0 07 bd 1e 08 bd bd f8 f2 6f bd
       -0.07430645 -0.033142164 -0.09230064 -0.058581322
000170 6e 0f 1c 3c 89 26 86 bc d7 9d 92 bc ee 3e 70 bd
       0.009525163 -0.016375797 -0.01789753 -0.058653764
000180 d5 b7 92 3c e2 ec ae 3c 04 c2 37 bc db e4 4a bd
       0.017909924 0.021353189 -0.0112156905 -0.04953466
000190 20 38 92 bd 98 8d b5 bd b8 60 a5 3d 66 65 d0 3c
       -0.07139611 -0.088648975 0.08075088 0.025438976
0001a0 a6 38 c0 3b 12 7a ab 3d 5b 1d 1c 3d d6 98 a3 bd
       0.005866128 0.083728924 0.038113933 -0.079881355
0001b0 59 b5 69 3d c6 b0 f7 3c b7 8e 93 bd b9 f9 62 3c
       0.057057712 0.03023566 -0.07204955 0.013853484
0001c0 6e 0d ca 3c 5f 4d e9 bb 03 9d be bd d8 d7 3c bd
       0.024664607 -0.007119819 -0.09307291 -0.046104282
0001d0 92 60 04 3d ab e8 d4 3d 7e 30 80 bd 15 de 8c 3d
       0.03231866 0.103959404 -0.06259249 0.06878296
0001e0 33 e2 cb 3d 69 27 9b bd e5 dd cc bd 35 e3 94 bd
       0.099552535 -0.07575876 -0.100032605 -0.07269899
0001f0 5b 36 40 bd 76 c6 77 3d da 23 41 bd f5 59 a4 3c
       -0.046926837 0.060492 -0.04715333 0.020062426
000200 b0 7a 4e bd a1 27 d5 3d cd 29 22 bd ec 7c 58 3d
       -0.050409973 0.10407949 -0.039590646 0.05285351
000210 35 8b 54 3d 15 1a e2 3c e9 48 9b bd 8b cd 90 3c
       0.05189057 0.027600328 -0.07582266 0.017676136
000220 d2 95 b8 bc 3e 85 97 3d f4 13 84 3c 20 c9 95 bd
       -0.022532377 0.07398461 0.016122796 -0.07313752
000230 cb e4 cd 3b 59 16 10 bd 06 85 89 3d af 74 56 bd
       0.0062833778 -0.035177562 0.06714825 -0.052357372
000240 02 b0 bf 3d 01 1c c4 bb 2a 40 8b 3d 66 11 92 3d
       0.09359743 -0.0059847836 0.06799348 0.07132225
000250 8d d4 d4 bd 58 82 18 bd ee c1 d7 bd 3b e1 0c bc
       -0.10392103 -0.03723368 -0.10535036 -0.008598621
000260 62 4d 97 3c 5b ea 53 bd 88 20 10 3d de 58 b2 bd
       0.018469516 -0.05173717 0.035187274 -0.08708356
000270 1b ed a4 bc f2 56 aa bd 6e dc f8 3b fb d1 c3 bd
       -0.020132592 -0.08317365 0.0075946366 -0.09561535
000280 b5 58 5b 3c 9b 45 cb 3d d0 16 8d 3d c9 15 e3 3c
       0.013387849 0.099253856 0.06889117 0.027720349
000290 c5 40 9c bd c3 29 0b 3b 19 03 a3 bd 1a 90 68 bd
       -0.07629541 0.0021234609 -0.07959575 -0.05677805
0002a0 d3 41 88 bd e2 c2 ce 3d 1d 7f 47 bb 6c 3a 27 bb
       -0.0665318 0.10095765 -0.0030440756 -0.0025517
0002b0 97 77 8e 3d b2 87 30 bd d3 e3 75 bc a0 0f ba 3d
       0.06956404 -0.04309816 -0.015007931 0.090850115
0002c0 08 e8 b9 bb d2 ec a0 bd 95 fd d3 bd 5a 5f c6 3d
       -0.0056734122 -0.0785767 -0.10351101 0.096861556
0002d0 e2 77 7e bd fc ce 7d bd 22 62 9d 3d af 0e 79 bd
       -0.062126048 -0.061964974 0.07684733 -0.06080502
0002e0 fd df 7f 3d d8 9e 77 3d 17 4f a1 bb 67 94 b8 bd
       0.06246947 0.06045422 -0.0049227583 -0.090126805
0002f0 d9 aa b2 bc d6 d8 88 3d 50 c5 09 bd 95 40 8e 3d
       -0.021809982 0.06681983 -0.033635437 0.06945912
000300 a5 2e 72 bd 60 89 99 bd 02 dd 07 bd d0 33 ca bc
       -0.059126515 -0.07496905 -0.033169754 -0.02468291
000310 2d d0 af 3d 1b 6a 6b bd 1b 9e 55 bd 58 bc af 3d
       0.08584628 -0.057474237 -0.052152734 0.085808456
000320 ab bd ce bd b1 69 3e 3d a3 7e a2 bc 4e f0 75 3d
       -0.1009477 0.046487514 -0.019835776 0.060043626
000330 00 0c d2 3b 65 44 99 3d e6 96 2f bc c9 4a d7 bd
       0.006410122 0.07483748 -0.010717129 -0.10512311
000340 57 3f a4 bb 17 e6 89 3d 25 68 8e 3d ba cb 04 3c
       -0.0050124335 0.06733339 0.06953458 0.008105213
000350 d2 40 a2 3d 05 c5 bc bd c0 83 ef bc da 02 d5 3d
       0.0792252 -0.09217266 -0.029237628 0.104009345
000360 8c 65 13 3d ce 02 ba bd e9 8d 7f 3c a7 3b a1 bd
       0.035985515 -0.09082566 0.015597799 -0.07872706
000370 d9 4b 30 bc 95 85 93 3d 25 6f b6 bd 4e c7 0f 3d
       -0.010760271 0.07203213 -0.08907918 0.03510218
000380 f3 f2 68 3d ae ce 25 3d e2 02 cc bd 63 41 97 bd
       0.05687232 0.04048031 -0.09961487 -0.073855184
000390 09 6c 40 bd 44 fa b4 bd ac 41 99 3c 86 27 ab bb
       -0.04697803 -0.08836797 0.018708073 -0.0052232174
0003a0 13 2a a4 bd 7a b6 bf bc ea 8e c1 bc c2 79 16 3d
       -0.080158375 -0.023402441 -0.023627717 0.03673721
0003b0 dd 33 94 bd 6b 5f 84 bb 95 8f 39 bc 05 62 24 3d
       -0.07236455 -0.004039695 -0.0113257365 0.04013254
0003c0 32 7d 90 bd 6a 34 a4 3d ce 49 67 3d 43 34 b2 3d
       -0.07055129 0.0801781 0.05646687 0.087013744
0003d0 8f 6a 1c 3d 48 be 8c bd 4c 8e b2 3c 8b d6 c2 bd
       0.03818756 -0.06872231 0.021796368 -0.09513577
0003e0 ca a0 90 bd db 6a ac bc 12 d9 2e 3d 04 64 3b bd
       -0.07061918 -0.021047046 0.042687483 -0.04574968
0003f0 43 01 a0 3c bd c7 aa bd 51 73 ee 3b 95 f2 b0 3d
       0.019531852 -0.08338878 0.0072769304 0.08640019

convblock2.0.bias f4 [10]
000000 f9 ce 82 bd 07 ce b6 3d da b0 1b 3d fd b4 8b bd
       -0.06387133 0.08926015 0.038010456 -0.0682163
000010 11 ef 7e 3d 4c 52 d2 bd 87 7e 4e 3d be f1 b6 bd
       0.06223971 -0.10269603 0.050413635 -0.089328274
000020 65 18 47 bb e1 74 23 3d
       -0.003037953 0.039906386

convblock2.2.weight f4 [10, 10, 3, 3]
000000 31 22 36 3d 5b 3a 14 3d a6 6e dd 3c f6 11 04 bd
       0.0444662 0.036188465 0.0270303 -0.03224369
000010 d4 bf 41 3d 4e 0a bd bd 8c 55 a1 3d c5 9b 06 bd
       0.047302082 -0.09230481 0.07877645 -0.032863397
000020 46 61 a9 3d 36 c4 66 bd 89 9e a1 3d e7 26 71 3d
       0.082705066 -0.056339465 0.07891566 0.05887499
000030 34 fc 3d 3c c9 68 c9 bd e8 d2 c6 3c 0e cd 3a 3d
       0.011595774 -0.09834439 0.02427049 0.04560571
000040 8a 9c 89 3d 6b cf 85 bd 39 6e b4 bd ed 83 8f 3b
       0.067193106 -0.065337025 -0.08810086 0.0043797405
000050 b5 53 59 bd 39 8b 65 3d f3 63 9e 3d 40 72 98 bd
       -0.053058345 0.056040976 0.077339076 -0.074436665
000060 8b fd 8a bd 90 5e 67 3d 92 a9 27 3d 55 e1 6e bc
       -0.06786641 0.056486666 0.0409332 -0.0145800905
000070 ca 8c a3 bd e8 8b 29 bd b5 2e b1 bd 7f 36 ac bd
       -0.07985838 -0.04139319 -0.08651487 -0.08408832
000080 33 57 e3 bc dc 3d 4d bd ec 54 80 bc e2 f2 d5 bd
       -0.02775154 -0.05010782 -0.015665494 -0.10446717
000090 2f da 0e bd 93 d2 64 3b 2e cc 97 bb 4e 87 7a 3d
       -0.034876045 0.003491555 -0.0046324944 0.061164193
0000a0 f7 18 90 38 a3 90 89 bd ad 4c 7b 3d 5e ea b4 3d
       6.871105e-05 -0.067170404 0.06135242 0.088337645
0000b0 c9 86 d2 bd c6 1d 57 bd b0 fc 06 3c 83 19 bf bd
       -0.102796145 -0.05251863 0.008238956 -0.09331038
0000c0 52 cd ba bd 28 5a 1f bd 60 50 84 3c 80 00 14 3b
       -0.09121193 -0.03890434 0.016151607 0.0022583306
0000d0 36 ff 35 3d 59 ee 94 3d d2 65 a0 3d 78 e4 96 bc
       0.04443284 0.07272024 0.07831921 -0.01841949
0000e0 14 49 a0 3b a2 40 90 bd fb be 27 3d 4c ef a0 bd
       0.004891524 -0.07043578 0.040953618 -0.07858142
0000f0 d9 d2 84 bd 15 46 b0 3d 08 41 a7 3d df 6f 90 3d
       -0.064855285 0.08607117 0.081667006 0.07052588
000100 cf 95 bc 3d f9 b4 99 bd 60 33 65 bb 86 97 65 3d
       0.09208261 -0.07505221 -0.003497325 0.056052707
000110 6a 33 86 bd a0 61 a0 bb 6d e2 d6 3d 7e c6 48 3d
       -0.06552775 -0.0048944503 0.10492406 0.049017422
000120 ec 88 95 3c 1f bc 27 3d 04 4a a8 3d 14 30 3c 3d
       0.018253766 0.04095089 0.08217242 0.04594429
000130 48 f2 5e 3d cf 49 4e 3b 07 0f 04 bd 14 e1 87 3d
       0.054430276 0.0031477099 -0.032240894 0.06634727
000140 42 5a af 3d 95 d1 78 3b 29 8d 95 3d bd 50 78 3d
       0.08562137 0.0037966718 0.07302315 0.060623873
000150 23 f7 3d 3d 05 25 f1 bc 5f 18 92 bd ff aa 54 bd
       0.046378266 -0.029436598 -0.07133555 -0.051920887
000160 4d f7 f2 3c 55 ef d4 bd 80 f9 c1 3d 75 11 95 bd
       0.029658938 -0.103972115 0.094714165 -0.0727872
000170 36 38 d5 3c 29 d4 6f 3c d6 85 c0 3b cf 72 8a 3d
       0.02602778 0.014637985 0.0058753295 0.06760179
000180 a1 c5 71 bd 76 8d d7 bd de 14 8b 3d c9 c0 43 3d
       -0.059026364 -0.105250284 0.067910895 0.047791276
000190 26 f9 af bd 25 b4 10 bd 74 1d 65 3d db 38 b5 3d
       -0.08592443 -0.03532805 0.05593629 0.08848735
0001a0 ec d3 27 3d 98 5e 56 3d f6 f5 54 3d 70 2a c1 bd
       0.04097359 0.052336305 0.05199238 -0.094319224
0001b0 51 d2 31 3d fa 46 82 bd 82 ba 99 3d 66 41 27 bd
       0.043413464 -0.06361194 0.07506277 -0.040833853
0001c0 e4 3f 07 39 cc eb 59 3d 82 8e 83 bc 6a 52 43 3c
       0.00012898404 0.05320339 -0.016059164 0.0119215045
0001d0 38 e1 f6 3c fc 2c fd bc e1 d1 d3 bc 53 25 96 bc
       0.03013669 -0.03090524 -0.025856914 -0.018328344
0001e0 4b 3d 9d 3d 6e d8 d0 3d a8 7f aa 3d 26 86 d6 bd
       0.07677706 0.10197531 0.0832513 -0.104748055
0001f0 cf 86 9c 3d a5 de 06 3c 65 52 b8 bd 26 93 17 3d
       0.076429 0.0082317935 -0.090000905 0.037005566
000200 ef 96 5f bd ff 49 b2 bd c5 a2 32 bd fc 85 a6 3d
       -0.0545873 -0.0870552 -0.04361226 0.08131024
000210 c0 98 d1 3d 8a 66 b9 bd ed fb 81 bb b6 a5 56 3d
       0.10234213 -0.09052761 -0.0039667995 0.052404128
000220 a7 56 7a bd c0 ee 87 3b 0c 9b 9b bc 22 c7 20 3d
       -0.061117794 0.0041483343 -0.01899483 0.039252408
000230 b1 42 9b 3d e0 44 b6 3b b2 af 1b 3d 1a cb 81 bd
       0.0758108 0.0055624098 0.038009353 -0.06337567
000240 2f 0e 4c bb ed a7 01 3d ff 3a 5e bd 07 a5 1e bd
       -0.0031136384 0.031654287 -0.05425548 -0.0387316
000250 54 c6 52 3d 91 82 ea 3c b8 aa 09 3d 1b 23 41 bd
       0.05145867 0.028626712 0.033610076 -0.04715262
000260 1f 4c 36 39 80 39 98 bd f4 59 e1 bc c3 51 8f 3d
       0.0001738523 -0.07432842 -0.027508713 0.06998017
000270 40 5a 51 3b 29 57 6b bd 08 9b 67 bc 17 f3 b7 3d
       0.0031944662 -0.05745617 -0.014136083 0.089819126
000280 97 e3 b0 3d bf c7 b3 3d 74 2d ae bd 88 9b d7 3d
       0.08637159 0.08778333 -0.08504763 0.10527712
000290 53 f8 88 3d 6a 96 b0 bd 05 ae 8c 3d b6 2d ff bb
       0.06687989 -0.08622439 0.06869129 -0.0077874316
0002a0 42 38 ca 3d 88 ed 7b 3c 3d 3f 91 3d d5 48 7e 3d
       0.098740116 0.015376456 0.0709214 0.062081177
0002b0 f9 04 83 bc 32 c8 3e bd 3c 4e fb 3c 72 e6 b6 bc
       -0.015993582 -0.04657764 0.030676953 -0.022326682
0002c0 b4 dc 1f bc 56 4e 2e 3d f5 35 92 3c 00 ef 8d bd
       -0.00975721 0.042555176 0.017847994 -0.06930351
0002d0 b3 3a fc 3c 76 4a 97 3a 67 97 76 3d 6e 47 54 bd
       0.030789709 0.0011542577 0.060202982 -0.051825933
0002e0 aa 22 21 3d 2d 92 00 bc a4 40 70 bd c1 30 b1 3d
       0.0393397 -0.007847351 -0.058655396 0.08651877
0002f0 f5 88 ac 3b 03 83 8c bd 31 f5 3a bd 99 d2 7c bd
       0.00526535 -0.06860926 -0.04564399 -0.06172428
000300 4e fa 08 3c f8 69 d2 3d a4 4d 9d bd 93 76 8c 3c
       0.008360459 0.10274118 -0.076808244 0.017146384
000310 63 4a 78 bd c9 7b 70 3d b4 da 16 3c 7e de 41 bd
       -0.060617816 0.0587118 0.009207416 -0.047331326
000320 94 52 ca 3c 34 31 d4 bd 34 b9 4b 3c f4 be c6 3c
       0.02469758 -0.10360947 0.012434293 0.024260975
000330 50 21 65 3d 28 24 23 3c 19 3b 77 3d 69 08 43 3d
       0.055939972 0.009957351 0.060359094 0.047615442
000340 55 1b d4 3b 30 95 2f bd 70 de be bd 8c 59 b0 3d
       0.006472985 -0.042866886 -0.0931977 0.0861083
000350 38 25 0e 3d 6e 85 cc 3d 94 e0 13 bd 99 11 08 3d
       0.034703463 0.09986387 -0.036102846 0.033219907
000360 2d 5a da bb 81 7c 9f 3d cd 21 b9 3c 4f 94 5a 3b
       -0.006663582 0.07787419 0.022599125 0.003335256
000370 e0 c6 7f 3d 6d 33 70 3c 95 80 bc 3d b0 ce fe 3c
       0.06244552 0.014660698 0.092042126 0.031104416
000380 3e d6 b8 3d 65 93 7a bd 9d b0 b2 bd d7 69 96 3d
       0.090252385 -0.061175723 -0.087250926 0.07344406
000390 14 66 09 bd 8c 75 a9 3c 20 ea 53 3c 93 a4 c9 bd
       -0.033544615 0.020685934 0.012934238 -0.09845843
0003a0 e2 99 d7 bd 00 fc 6d b9 b8 00 10 bd 21 ec 6c bd
       -0.10527398 -0.00022695959 -0.035156935 -0.057842378
0003b0 98 ad bb 3d 61 1c db bc f0 54 17 3d bb c7 10 3c
       0.0916397 -0.02674693 0.036946237 0.008836682
0003c0 d3 3d 35 bc 45 8e 10 3d cd da 42 3d 58 0c a0 bc
       -0.011062103 0.03529193 0.047571946 -0.019537136
0003d0 99 de d4 3d 66 08 29 bd 6e 18 28 3d 58 d7 8a bc
       0.1039402 -0.041267775 0.041038923 -0.016948387
0003e0 2f e9 42 bd 4a fe 6a 3d d8 70 15 bd 11 a5 c0 3d
       -0.047585662 0.057371415 -0.03648457 0.09406484
0003f0 be 89 c7 3c 55 d0 e0 bc 8c c4 69 bd 31 70 87 bd
       0.024357673 -0.02744309 -0.057072207 -0.06613196

convblock2.2.bias f4 [10]
000000 9d 4e c8 bc 0a c2 ae 3b 24 e4 a5 bc 0d 5f aa 3c
       -0.024451548 0.00533319 -0.020250387 0.020797277
000010 e6 9a ec 3c d7 08 73 3d 8f 3d 8b bd 10 31 a3 bd
       0.028882455 0.059334602 -0.06798851 -0.07968342
000020 b7 e0 24 3c ac 7f 83 3d
       0.010063342 0.06420836

classifier.1.weight f4 [3, 1690]
000000 9f 77 80 ba 3e 79 35 3c 29 c4 ab 3b eb ec 18 bc
       -0.0009801275 0.01107627 0.00524189 -0.009333829
000010 d6 09 74 3c 0e 28 8d bc fa 2a 87 3c 67 d0 8a ba
       0.014894923 -0.017231014 0.016499985 -0.0010590673
000020 ba a6 54 bc f7 88 8c bb d4 51 78 3c 05 68 a5 bc
       -0.012979204 -0.0042887884 0.015156228 -0.020191202
000030 20 0d b4 bc 6f c2 2e bc 4b 96 a5 b9 b1 38 c7 3c
       -0.021978915 -0.010666474 -0.0003158323 0.024319025
000040 93 53 b9 3c b8 ad 24 bc 93 46 8e bc 83 40 c4 3c
       0.02262286 -0.010051183 -0.017367637 0.023956543
000050 ca e4 4f 3c 66 22 a9 3c ba 61 c7 3c 59 24 3b bc
       0.012688825 0.020646285 0.024338592 -0.01142224
000060 6b d7 83 3c 44 0a 73 bc ea bf 26 3c 60 3b ee bb
       0.01609393 -0.0148339905 0.010177592 -0.0072702616
000070 ee 98 7c bc 37 c7 50 3b e1 cc 98 bc 74 11 c1 3c
       -0.015417321 0.0031857023 -0.018652381 0.023567893
000080 5b 34 28 3c 3c 9a d7 3b 40 9b 98 3b 65 dd 09 bc
       0.010266389 0.0065796655 0.004657179 -0.008414601
000090 0f 05 01 3c ad 22 5b 3c b0 e0 83 3b 92 ee 82 3c
       0.007874741 0.013374967 0.0040245876 0.0159829
0000a0 c5 27 ff 3b 69 99 0e 3c e0 94 49 bb f8 b8 b9 bb
       0.0077867233 0.008703568 -0.0030758902 -0.005667802
0000b0 5e fc 50 3c 0f d3 9e bb 42 3d 83 3c 6c 29 8e 3c
       0.0127554815 -0.0048469375 0.016020421 0.017353736
0000c0 22 76 45 bc 03 14 2c bc bf 65 ac 3c da c6 9c bb
       -0.012052091 -0.010502818 0.02104461 -0.004784447
0000d0 9c 8e e4 ba e1 8c a5 bb 6d bd ae 3c 5f 85 97 3c
       -0.001743752 -0.0050521945 0.02133056 0.018496213
0000e0 99 23 c5 bc 17 58 e6 3a ce ef 9c bc b6 07 1b 37
       -0.024064826 0.001757386 -0.019157317 9.240515e-06
0000f0 2a 5b 26 bc 45 a5 db bb ca a6 87 3c 18 59 92 3c
       -0.010153571 -0.0067030513 0.016559023 0.017864749
000100 da de 3d bb f2 ef 83 3c 1a cf a4 3c 38 62 bd 3c
       -0.0028971941 0.016105626 0.020118285 0.023118123
000110 d4 1b 9f bc 6c a9 09 bc 1b 6c b0 3c 38 a4 17 3c
       -0.01942245 -0.00840221 0.021535924 0.009255461
000120 9e 88 63 3b ce 39 dc ba d0 c3 c2 bc 9a d6 92 bc
       0.0034718881 -0.0016801895 -0.023775011 -0.017924596
000130 39 c6 4a 3b e1 a5 a2 3a 6c 8a 37 bb 86 93 8d bc
       0.0030940904 0.0012409055 -0.002800609 -0.017282259
000140 cc fb 18 3c 8b 94 da ba 5a 75 b3 3c 9d b4 2d bc
       0.009337377 -0.0016676349 0.021906544 -0.010602144
000150 ae ac 8f bc 62 37 f0 bb 9c b7 b3 3c 1a 18 94 3c
       -0.017538395 -0.007330821 0.021938138 0.018077899
000160 0a c9 eb 3a a1 0f e7 3b bb 76 19 3c e4 e7 3b 3c
       0.0017988991 0.0070514237 0.009366686 0.011468861
000170 30 d8 c4 b9 b7 77 8a bc 8b 8e bd 3c 00 40 32 3c
       -0.00037545105 -0.016902788 0.023139259 0.010879517
000180 c2 e1 50 bc 0d 02 8d bc db 46 61 bc 5e 03 76 bc
       -0.012749137 -0.017212892 -0.013749803 -0.015015451
000190 f3 dd 15 bc 15 3b 81 3c cd 2b 9d bb d5 76 a3 bc
       -0.009147155 0.015775243 -0.004796481 -0.019954124
0001a0 ef 1f ea 3b 3d 62 9b 3c 52 a8 13 3c 9c b0 b6 ba
       0.00714492 0.018967742 0.009012299 -0.0013938132
0001b0 87 18 94 bc 7d 5c 99 3c 8c c8 d7 3a 59 c5 c2 bc
       -0.018078102 0.01872086 0.0016462966 -0.023775743
0001c0 5b ed 90 3c 4d 76 92 bc 9f 91 84 3c 4d 81 17 bb
       0.017691305 -0.017878676 0.016182719 -0.002311784
0001d0 4e 48 24 bc df fb af 3c d8 0d aa bc bf 11 e2 bb
       -0.010027004 0.021482406 -0.020758554 -0.006899088
0001e0 0f 67 1f bc 73 ea 1c 3b 2a 74 b3 bc a2 31 b0 3c
       -0.009729161 0.0023943454 -0.021905977 0.021508042
0001f0 3c 90 82 3c a7 54 85 bc c7 50 8e bc 3a db 6b 3c
       0.015937917 -0.016275717 -0.017372502 0.014395529
000200 87 c4 81 3b ce b3 87 3b 76 2b e1 3b bd b4 d5 bb
       0.0039601955 0.0041413074 0.006871636 -0.00652179
000210 c3 ed 50 3b a6 a8 bb bc 74 ce aa 3c d7 7e 9b 3b
       0.0031879998 -0.022907566 0.020850398 0.004745345
000220 f5 c3 b2 3c aa da 31 bc 4b 14 8a bc 62 3e 1e 3b
       0.021821955 -0.010855356 -0.01685538 0.002414607
000230 68 2f 0a bb c8 48 27 bc 37 bd 11 3c f1 70 b5 bc
       -0.0021085385 -0.0102102235 0.00889521 -0.022148581
000240 e8 42 17 bc d8 73 bb bc 23 79 f2 3a 79 ec 82 bc
       -0.00923226 -0.022882387 0.0018499236 -0.0159819
000250 f3 d6 11 bc fe 59 0b 3c 0c b6 97 bc e8 7f 0a 3c
       -0.008901346 0.0085053425 -0.018519424 0.008453347
000260 35 3d 07 bc 45 2c f9 3b 1b 2a 44 3c 5b 7c 62 bc
       -0.008254339 0.0076041543 0.011972929 -0.013823594
000270 21 c0 ce bb f8 d1 b8 bc 29 aa 8d bc a8 04 be 3c
       -0.0063095246 -0.022561058 -0.017293053 0.02319558
000280 1b 50 ac bb 83 61 51 bc 93 68 fe 3b b9 ea 88 ba
       -0.0052585728 -0.012779596 0.007763931 -0.0010445929
000290 30 7c b7 bc 87 39 30 bc 92 11 63 bc 7b c4 5f bc
       -0.022398084 -0.010755903 -0.01385917 -0.013657684
0002a0 9a 34 f2 3b 75 41 2b bc d5 56 c5 3c aa bd 75 ba
       0.0073915245 -0.010452618 0.024089256 -0.00093742704
0002b0 65 1e 32 bc 70 d5 6a bc 29 d7 b8 bc 00 3f 57 bc
       -0.010871504 -0.014333114 -0.022563534 -0.013137579
0002c0 c1 4e 9b 3b 37 a0 c0 bb 87 0d 2a bc 13 db 2f bb
       0.004739613 -0.005878474 -0.010379202 -0.002683346
0002d0 3c 71 ae 3c 70 50 bb bc da d6 96 bb 3b 2f 94 3c
       0.021294229 -0.022865504 -0.004603249 0.018088927
0002e0 2d aa 93 3a 18 93 aa bc 68 03 b5 3b fa ee bb 3c
       0.0011265926 -0.020822093 0.0055240877 0.022941101
0002f0 2d e8 d3 3a 8e e0 b2 bc d8 57 7e bc 23 e1 98 3c
       0.0016167216 -0.021835592 -0.015523873 0.018662041
000300 37 f8 6d bb b3 fc ba 3b cf ac ab bc a0 b4 f1 38
       -0.0036311278 0.0057063936 -0.020956425 0.000115254195
000310 d6 84 40 3c 42 f7 ae bc 24 9e a5 bc 41 43 97 3b
       0.011750421 -0.021358136 -0.020217009 0.0046161716
000320 46 de 98 3c 79 8e ad ba 3e a3 80 bc 4c 7d ad bc
       0.018660676 -0.0013241313 -0.01570284 -0.02117791
000330 9e 07 ad bc 25 10 a9 bc 20 5d b6 b8 8b f4 26 bc
       -0.021121796 -0.020637581 -8.695782e-05 -0.0101901395
000340 86 d8 5b 3c 0c 4f f7 3b 4f 60 b2 3c f3 f2 81 3c
       0.013418322 0.007547265 0.02177444 0.015862918
000350 3e 25 b4 bc d6 66 0c 3c 6f 3b 87 bc 6e 9f d0 bb
       -0.021990415 0.00856944 -0.016507832 -0.0063666617
000360 8f 3e 0e bc 58 55 77 3b e6 28 54 3c fc 5c 9e bc
       -0.008681907 0.0037740078 0.012949204 -0.019331448
000370 a2 7e 9d bc 44 2c 96 3c 2f b7 b6 3c 74 37 8f 3c
       -0.019225422 0.018331654 0.022304146 0.017482497
000380 0e d6 97 bb b3 1f 3f 3b 99 71 b7 bc b7 df 8a bc
       -0.0046336716 0.0029163181 -0.022393035 -0.016952379
000390 70 fc 4e 3c 83 77 a3 3c 81 c4 95 3c 23 0e 9a bc
       0.012633428 0.019954449 0.018282177 -0.018805569
0003a0 3f 52 f8 b9 9f 82 e1 bb d8 48 f8 b8 e5 f4 88 bc
       -0.00047363524 -0.0068820263 -0.0001183913 -0.016718337
0003b0 6e e6 8b bc f5 7f 53 3c 1c 0e a0 bc f5 8a 75 3c
       -0.01707765 0.012908925 -0.019537978 0.014986743
0003c0 e1 99 0c bc 84 b1 4b 3c e4 7c 9b 3b 88 f5 4c 3c
       -0.008581609 0.01243246 0.0047451127 0.012509711
0003d0 6e 74 30 bc 6f 3f c5 bc 30 8b 19 3c 1a d1 f8 bb
       -0.0107699465 -0.024078099 0.009371564 -0.007593286
0003e0 06 55 b5 3b 3f c0 e7 bb a6 86 42 3c 24 07 2b 3c
       0.005533817 -0.007072478 0.011872923 0.010438714
0003f0 a9 53 96 bc 72 3c bf 3c 70 2b 0e bc 94 db c1 bc
       -0.01835044 0.023344252 -0.0086773485 -0.023664273

classifier.1.bias f4 [3]
000000 cc b6 88 bc a8 5f 94 bc 68 cb 0a 3c
       -0.016688727 -0.018112019 0.008471347
